…
I1114 09:23:18.576589 31685 solver.cpp:81] Creating training net from train_net file: tmp/Megaage-train.prototxt
I1114 09:23:18.583637 31685 net.cpp:58] Initializing net from parameters: 
name: "SE-BN-Inception"
state {
  phase: TRAIN
}
layer {
  name: "data"
  type: "ImageData"
  top: "data"
  top: "label"
  transform_param {
    mirror: true
    crop_size: 224
    mean_value: 112
  }
  image_data_param {
    source: "./train.txt"
    batch_size: 32
    shuffle: true
    new_height: 256
    new_width: 256
    root_folder: "./data/megaage_256_256/"
  }
}
layer {
  name: "conv1/7x7_s2"
  type: "Convolution"
  bottom: "data"
  top: "conv1/7x7_s2"
  param {
    lr_mult: 10
    decay_mult: 10
  }
  convolution_param {
    num_output: 64
    bias_term: false
    pad: 3
    kernel_size: 7
    stride: 2
    engine: CAFFE
  }
}
layer {
  name: "conv1/7x7_s2/bn"
  type: "BatchNorm"
  bottom: "conv1/7x7_s2"
  top: "conv1/7x7_s2"
  batch_norm_param {
    use_global_stats: false
  }
}
layer {
  name: "conv1/7x7_s2/bn/scale"
  type: "Scale"
  bottom: "conv1/7x7_s2"
  top: "conv1/7x7_s2"
  scale_param {
    bias_term: true
  }
}
layer {
  name: "conv1/relu_7x7"
  type: "ReLU"
  bottom: "conv1/7x7_s2"
  top: "conv1/7x7_s2"
}
layer {
  name: "pool1/3x3_s2"
  type: "Pooling"
  bottom: "conv1/7x7_s2"
  top: "pool1/3x3_s2"
  pooling_param {
    pool: MAX
    kernel_size: 3
    stride: 2
  }
}
layer {
  name: "conv2/3x3_reduce"
  type: "Convolution"
  bottom: "pool1/3x3_s2"
  top: "conv2/3x3_reduce"
  param {
    lr_mult: 10
    decay_mult: 10
  }
  convolution_param {
    num_output: 64
    bias_term: false
    kernel_size: 1
    engine: CAFFE
  }
}
layer {
  name: "conv2/3x3_reduce/bn"
  type: "BatchNorm"
  bottom: "conv2/3x3_reduce"
  top: "conv2/3x3_reduce"
  batch_norm_param {
    use_global_stats: false
  }
}
layer {
  name: "conv2/3x3_reduce/bn/scale"
  type: "Scale"
  bottom: "conv2/3x3_reduce"
  top: "conv2/3x3_reduce"
  scale_param {
    bias_term: true
  }
}
layer {
  name: "conv2/relu_3x3_reduce"
  type: "ReLU"
  bottom: "conv2/3x3_reduce"
  top: "conv2/3x3_reduce"
}
layer {
  name: "conv2/3x3"
  type: "Convolution"
  bottom: "conv2/3x3_reduce"
  top: "conv2/3x3"
  param {
    lr_mult: 10
    decay_mult: 10
  }
  convolution_param {
    num_output: 192
    bias_term: false
    pad: 1
    kernel_size: 3
    engine: CAFFE
  }
}
layer {
  name: "conv2/3x3/bn"
  type: "BatchNorm"
  bottom: "conv2/3x3"
  top: "conv2/3x3"
  batch_norm_param {
    use_global_stats: false
  }
}
layer {
  name: "conv2/3x3/bn/scale"
  type: "Scale"
  bottom: "conv2/3x3"
  top: "conv2/3x3"
  scale_param {
    bias_term: true
  }
}
layer {
  name: "conv2/relu_3x3"
  type: "ReLU"
  bottom: "conv2/3x3"
  top: "conv2/3x3"
}
layer {
  name: "pool2/3x3_s2"
  type: "Pooling"
  bottom: "conv2/3x3"
  top: "pool2/3x3_s2"
  pooling_param {
    pool: MAX
    kernel_size: 3
    stride: 2
  }
}
layer {
  name: "inception_3a/1x1"
  type: "Convolution"
  bottom: "pool2/3x3_s2"
  top: "inception_3a/1x1"
  param {
    lr_mult: 10
    decay_mult: 10
  }
  convolution_param {
    num_output: 64
    bias_term: false
    kernel_size: 1
    engine: CAFFE
  }
}
layer {
  name: "inception_3a/1x1/bn"
  type: "BatchNorm"
  bottom: "inception_3a/1x1"
  top: "inception_3a/1x1"
  batch_norm_param {
    use_global_stats: false
  }
}
layer {
  name: "inception_3a/1x1/bn/scale"
  type: "Scale"
  bottom: "inception_3a/1x1"
  top: "inception_3a/1x1"
  scale_param {
    bias_term: true
  }
}
layer {
  name: "inception_3a/relu_1x1"
  type: "ReLU"
  bottom: "inception_3a/1x1"
  top: "inception_3a/1x1"
}
layer {
  name: "inception_3a/3x3_reduce"
  type: "Convolution"
  bottom: "pool2/3x3_s2"
  top: "inception_3a/3x3_reduce"
  param {
    lr_mult: 10
    decay_mult: 10
  }
  convolution_param {
    num_output: 64
    bias_term: false
    kernel_size: 1
    engine: CAFFE
  }
}
layer {
  name: "inception_3a/3x3_reduce/bn"
  type: "BatchNorm"
  bottom: "inception_3a/3x3_reduce"
  top: "inception_3a/3x3_reduce"
  batch_norm_param {
    use_global_stats: false
  }
}
layer {
  name: "inception_3a/3x3_reduce/bn/scale"
  type: "Scale"
  bottom: "inception_3a/3x3_reduce"
  top: "inception_3a/3x3_reduce"
  scale_param {
    bias_term: true
  }
}
layer {
  name: "inception_3a/relu_3x3_reduce"
  type: "ReLU"
  bottom: "inception_3a/3x3_reduce"
  top: "inception_3a/3x3_reduce"
}
layer {
  name: "inception_3a/3x3"
  type: "Convolution"
  bottom: "inception_3a/3x3_reduce"
  top: "inception_3a/3x3"
  param {
    lr_mult: 10
    decay_mult: 10
  }
  convolution_param {
    num_output: 64
    bias_term: false
    pad: 1
    kernel_size: 3
    engine: CAFFE
  }
}
layer {
  name: "inception_3a/3x3/bn"
  type: "BatchNorm"
  bottom: "inception_3a/3x3"
  top: "inception_3a/3x3"
  batch_norm_param {
    use_global_stats: false
  }
}
layer {
  name: "inception_3a/3x3/bn/scale"
  type: "Scale"
  bottom: "inception_3a/3x3"
  top: "inception_3a/3x3"
  scale_param {
    bias_term: true
  }
}
layer {
  name: "inception_3a/relu_3x3"
  type: "ReLU"
  bottom: "inception_3a/3x3"
  top: "inception_3a/3x3"
}
layer {
  name: "inception_3a/double3x3_reduce"
  type: "Convolution"
  bottom: "pool2/3x3_s2"
  top: "inception_3a/double3x3_reduce"
  param {
    lr_mult: 10
    decay_mult: 10
  }
  convolution_param {
    num_output: 64
    bias_term: false
    kernel_size: 1
    engine: CAFFE
  }
}
layer {
  name: "inception_3a/double3x3_reduce/bn"
  type: "BatchNorm"
  bottom: "inception_3a/double3x3_reduce"
  top: "inception_3a/double3x3_reduce"
  batch_norm_param {
    use_global_stats: false
  }
}
layer {
  name: "inception_3a/double3x3_reduce/bn/scale"
  type: "Scale"
  bottom: "inception_3a/double3x3_reduce"
  top: "inception_3a/double3x3_reduce"
  scale_param {
    bias_term: true
  }
}
layer {
  name: "inception_3a/relu_double3x3_reduce"
  type: "ReLU"
  bottom: "inception_3a/double3x3_reduce"
  top: "inception_3a/double3x3_reduce"
}
layer {
  name: "inception_3a/double3x3a"
  type: "Convolution"
  bottom: "inception_3a/double3x3_reduce"
  top: "inception_3a/double3x3a"
  param {
    lr_mult: 10
    decay_mult: 10
  }
  convolution_param {
    num_output: 96
    bias_term: false
    pad: 1
    kernel_size: 3
    engine: CAFFE
  }
}
layer {
  name: "inception_3a/double3x3a/bn"
  type: "BatchNorm"
  bottom: "inception_3a/double3x3a"
  top: "inception_3a/double3x3a"
  batch_norm_param {
    use_global_stats: false
  }
}
layer {
  name: "inception_3a/double3x3a/bn/scale"
  type: "Scale"
  bottom: "inception_3a/double3x3a"
  top: "inception_3a/double3x3a"
  scale_param {
    bias_term: true
  }
}
layer {
  name: "inception_3a/relu_double3x3a"
  type: "ReLU"
  bottom: "inception_3a/double3x3a"
  top: "inception_3a/double3x3a"
}
layer {
  name: "inception_3a/double3x3b"
  type: "Convolution"
  bottom: "inception_3a/double3x3a"
  top: "inception_3a/double3x3b"
  param {
    lr_mult: 10
    decay_mult: 10
  }
  convolution_param {
    num_output: 96
    bias_term: false
    pad: 1
    kernel_size: 3
    engine: CAFFE
  }
}
layer {
  name: "inception_3a/double3x3b/bn"
  type: "BatchNorm"
  bottom: "inception_3a/double3x3b"
  top: "inception_3a/double3x3b"
  batch_norm_param {
    use_global_stats: false
  }
}
layer {
  name: "inception_3a/double3x3b/bn/scale"
  type: "Scale"
  bottom: "inception_3a/double3x3b"
  top: "inception_3a/double3x3b"
  scale_param {
    bias_term: true
  }
}
layer {
  name: "inception_3a/relu_double3x3b"
  type: "ReLU"
  bottom: "inception_3a/double3x3b"
  top: "inception_3a/double3x3b"
}
layer {
  name: "inception_3a/pool"
  type: "Pooling"
  bottom: "pool2/3x3_s2"
  top: "inception_3a/pool"
  pooling_param {
    pool: AVE
    kernel_size: 3
    stride: 1
    pad: 1
  }
}
layer {
  name: "inception_3a/pool_proj"
  type: "Convolution"
  bottom: "inception_3a/pool"
  top: "inception_3a/pool_proj"
  param {
    lr_mult: 10
    decay_mult: 10
  }
  convolution_param {
    num_output: 32
    bias_term: false
    kernel_size: 1
    engine: CAFFE
  }
}
layer {
  name: "inception_3a/pool_proj/bn"
  type: "BatchNorm"
  bottom: "inception_3a/pool_proj"
  top: "inception_3a/pool_proj"
  batch_norm_param {
    use_global_stats: false
  }
}
layer {
  name: "inception_3a/pool_proj/bn/scale"
  type: "Scale"
  bottom: "inception_3a/pool_proj"
  top: "inception_3a/pool_proj"
  scale_param {
    bias_term: true
  }
}
layer {
  name: "inception_3a/relu_pool_proj"
  type: "ReLU"
  bottom: "inception_3a/pool_proj"
  top: "inception_3a/pool_proj"
}
layer {
  name: "inception_3a/concat"
  type: "Concat"
  bottom: "inception_3a/1x1"
  bottom: "inception_3a/3x3"
  bottom: "inception_3a/double3x3b"
  bottom: "inception_3a/pool_proj"
  top: "inception_3a/concat"
}
layer {
  name: "inception_3a_global_pool"
  type: "Pooling"
  bottom: "inception_3a/concat"
  top: "inception_3a_global_pool"
  pooling_param {
    pool: AVE
    engine: CAFFE
    global_pooling: true
  }
}
layer {
  name: "inception_3a_1x1_down"
  type: "Convolution"
  bottom: "inception_3a_global_pool"
  top: "inception_3a_1x1_down"
  param {
    lr_mult: 10
    decay_mult: 10
  }
  convolution_param {
    num_output: 16
    kernel_size: 1
    stride: 1
    engine: CAFFE
  }
}
layer {
  name: "inception_3a_1x1_down/relu"
  type: "ReLU"
  bottom: "inception_3a_1x1_down"
  top: "inception_3a_1x1_down"
}
layer {
  name: "inception_3a_1x1_up"
  type: "Convolution"
  bottom: "inception_3a_1x1_down"
  top: "inception_3a_1x1_up"
  param {
    lr_mult: 10
    decay_mult: 10
  }
  convolution_param {
    num_output: 256
    kernel_size: 1
    stride: 1
    engine: CAFFE
  }
}
layer {
  name: "inception_3a_prob"
  type: "Sigmoid"
  bottom: "inception_3a_1x1_up"
  top: "inception_3a_1x1_up"
}
layer {
  name: "inception_3a_prob_reshape"
  type: "Reshape"
  bottom: "inception_3a_1x1_up"
  top: "inception_3a_prob_reshape"
  reshape_param {
    shape {
      dim: 0
      dim: 0
    }
  }
}
layer {
  name: "inception_3a_scale"
  type: "Scale"
  bottom: "inception_3a/concat"
  bottom: "inception_3a_prob_reshape"
  top: "inception_3a/output"
  scale_param {
    axis: 0
    bias_term: false
  }
}
layer {
  name: "inception_3b/1x1"
  type: "Convolution"
  bottom: "inception_3a/output"
  top: "inception_3b/1x1"
  param {
    lr_mult: 10
    decay_mult: 10
  }
  convolution_param {
    num_output: 64
    bias_term: false
    kernel_size: 1
    engine: CAFFE
  }
}
layer {
  name: "inception_3b/1x1/bn"
  type: "BatchNorm"
  bottom: "inception_3b/1x1"
  top: "inception_3b/1x1"
  batch_norm_param {
    use_global_stats: false
  }
}
layer {
  name: "inception_3b/1x1/bn/scale"
  type: "Scale"
  bottom: "inception_3b/1x1"
  top: "inception_3b/1x1"
  scale_param {
    bias_term: true
  }
}
layer {
  name: "inception_3b/relu_1x1"
  type: "ReLU"
  bottom: "inception_3b/1x1"
  top: "inception_3b/1x1"
}
layer {
  name: "inception_3b/3x3_reduce"
  type: "Convolution"
  bottom: "inception_3a/output"
  top: "inception_3b/3x3_reduce"
  param {
    lr_mult: 10
    decay_mult: 10
  }
  convolution_param {
    num_output: 64
    bias_term: false
    kernel_size: 1
    engine: CAFFE
  }
}
layer {
  name: "inception_3b/3x3_reduce/bn"
  type: "BatchNorm"
  bottom: "inception_3b/3x3_reduce"
  top: "inception_3b/3x3_reduce"
  batch_norm_param {
    use_global_stats: false
  }
}
layer {
  name: "inception_3b/3x3_reduce/bn/scale"
  type: "Scale"
  bottom: "inception_3b/3x3_reduce"
  top: "inception_3b/3x3_reduce"
  scale_param {
    bias_term: true
  }
}
layer {
  name: "inception_3b/relu_3x3_reduce"
  type: "ReLU"
  bottom: "inception_3b/3x3_reduce"
  top: "inception_3b/3x3_reduce"
}
layer {
  name: "inception_3b/3x3"
  type: "Convolution"
  bottom: "inception_3b/3x3_reduce"
  top: "inception_3b/3x3"
  param {
    lr_mult: 10
    decay_mult: 10
  }
  convolution_param {
    num_output: 96
    bias_term: false
    pad: 1
    kernel_size: 3
    engine: CAFFE
  }
}
layer {
  name: "inception_3b/3x3/bn"
  type: "BatchNorm"
  bottom: "inception_3b/3x3"
  top: "inception_3b/3x3"
  batch_norm_param {
    use_global_stats: false
  }
}
layer {
  name: "inception_3b/3x3/bn/scale"
  type: "Scale"
  bottom: "inception_3b/3x3"
  top: "inception_3b/3x3"
  scale_param {
    bias_term: true
  }
}
layer {
  name: "inception_3b/relu_3x3"
  type: "ReLU"
  bottom: "inception_3b/3x3"
  top: "inception_3b/3x3"
}
layer {
  name: "inception_3b/double3x3_reduce"
  type: "Convolution"
  bottom: "inception_3a/output"
  top: "inception_3b/double3x3_reduce"
  param {
    lr_mult: 10
    decay_mult: 10
  }
  convolution_param {
    num_output: 64
    bias_term: false
    kernel_size: 1
    engine: CAFFE
  }
}
layer {
  name: "inception_3b/double3x3_reduce/bn"
  type: "BatchNorm"
  bottom: "inception_3b/double3x3_reduce"
  top: "inception_3b/double3x3_reduce"
  batch_norm_param {
    use_global_stats: false
  }
}
layer {
  name: "inception_3b/double3x3_reduce/bn/scale"
  type: "Scale"
  bottom: "inception_3b/double3x3_reduce"
  top: "inception_3b/double3x3_reduce"
  scale_param {
    bias_term: true
  }
}
layer {
  name: "inception_3b/relu_double3x3_reduce"
  type: "ReLU"
  bottom: "inception_3b/double3x3_reduce"
  top: "inception_3b/double3x3_reduce"
}
layer {
  name: "inception_3b/double3x3a"
  type: "Convolution"
  bottom: "inception_3b/double3x3_reduce"
  top: "inception_3b/double3x3a"
  param {
    lr_mult: 10
    decay_mult: 10
  }
  convolution_param {
    num_output: 96
    bias_term: false
    pad: 1
    kernel_size: 3
    engine: CAFFE
  }
}
layer {
  name: "inception_3b/double3x3a/bn"
  type: "BatchNorm"
  bottom: "inception_3b/double3x3a"
  top: "inception_3b/double3x3a"
  batch_norm_param {
    use_global_stats: false
  }
}
layer {
  name: "inception_3b/double3x3a/bn/scale"
  type: "Scale"
  bottom: "inception_3b/double3x3a"
  top: "inception_3b/double3x3a"
  scale_param {
    bias_term: true
  }
}
layer {
  name: "inception_3b/relu_double3x3a"
  type: "ReLU"
  bottom: "inception_3b/double3x3a"
  top: "inception_3b/double3x3a"
}
layer {
  name: "inception_3b/double3x3b"
  type: "Convolution"
  bottom: "inception_3b/double3x3a"
  top: "inception_3b/double3x3b"
  param {
    lr_mult: 10
    decay_mult: 10
  }
  convolution_param {
    num_output: 96
    bias_term: false
    pad: 1
    kernel_size: 3
    engine: CAFFE
  }
}
layer {
  name: "inception_3b/double3x3b/bn"
  type: "BatchNorm"
  bottom: "inception_3b/double3x3b"
  top: "inception_3b/double3x3b"
  batch_norm_param {
    use_global_stats: false
  }
}
layer {
  name: "inception_3b/double3x3b/bn/scale"
  type: "Scale"
  bottom: "inception_3b/double3x3b"
  top: "inception_3b/double3x3b"
  scale_param {
    bias_term: true
  }
}
layer {
  name: "inception_3b/relu_double3x3b"
  type: "ReLU"
  bottom: "inception_3b/double3x3b"
  top: "inception_3b/double3x3b"
}
layer {
  name: "inception_3b/pool"
  type: "Pooling"
  bottom: "inception_3a/output"
  top: "inception_3b/pool"
  pooling_param {
    pool: AVE
    kernel_size: 3
    stride: 1
    pad: 1
  }
}
layer {
  name: "inception_3b/pool_proj"
  type: "Convolution"
  bottom: "inception_3b/pool"
  top: "inception_3b/pool_proj"
  param {
    lr_mult: 10
    decay_mult: 10
  }
  convolution_param {
    num_output: 64
    bias_term: false
    kernel_size: 1
    engine: CAFFE
  }
}
layer {
  name: "inception_3b/pool_proj/bn"
  type: "BatchNorm"
  bottom: "inception_3b/pool_proj"
  top: "inception_3b/pool_proj"
  batch_norm_param {
    use_global_stats: false
  }
}
layer {
  name: "inception_3b/pool_proj/bn/scale"
  type: "Scale"
  bottom: "inception_3b/pool_proj"
  top: "inception_3b/pool_proj"
  scale_param {
    bias_term: true
  }
}
layer {
  name: "inception_3b/relu_pool_proj"
  type: "ReLU"
  bottom: "inception_3b/pool_proj"
  top: "inception_3b/pool_proj"
}
layer {
  name: "inception_3b/concat"
  type: "Concat"
  bottom: "inception_3b/1x1"
  bottom: "inception_3b/3x3"
  bottom: "inception_3b/double3x3b"
  bottom: "inception_3b/pool_proj"
  top: "inception_3b/concat"
}
layer {
  name: "inception_3b_global_pool"
  type: "Pooling"
  bottom: "inception_3b/concat"
  top: "inception_3b_global_pool"
  pooling_param {
    pool: AVE
    engine: CAFFE
    global_pooling: true
  }
}
layer {
  name: "inception_3b_1x1_down"
  type: "Convolution"
  bottom: "inception_3b_global_pool"
  top: "inception_3b_1x1_down"
  param {
    lr_mult: 10
    decay_mult: 10
  }
  convolution_param {
    num_output: 20
    kernel_size: 1
    stride: 1
    engine: CAFFE
  }
}
layer {
  name: "inception_3b_1x1_down/relu"
  type: "ReLU"
  bottom: "inception_3b_1x1_down"
  top: "inception_3b_1x1_down"
}
layer {
  name: "inception_3b_1x1_up"
  type: "Convolution"
  bottom: "inception_3b_1x1_down"
  top: "inception_3b_1x1_up"
  param {
    lr_mult: 10
    decay_mult: 10
  }
  convolution_param {
    num_output: 320
    kernel_size: 1
    stride: 1
    engine: CAFFE
  }
}
layer {
  name: "inception_3b_prob"
  type: "Sigmoid"
  bottom: "inception_3b_1x1_up"
  top: "inception_3b_1x1_up"
}
layer {
  name: "inception_3b_prob_reshape"
  type: "Reshape"
  bottom: "inception_3b_1x1_up"
  top: "inception_3b_prob_reshape"
  reshape_param {
    shape {
      dim: 0
      dim: 0
    }
  }
}
layer {
  name: "inception_3b_scale"
  type: "Scale"
  bottom: "inception_3b/concat"
  bottom: "inception_3b_prob_reshape"
  top: "inception_3b/output"
  scale_param {
    axis: 0
    bias_term: false
  }
}
layer {
  name: "inception_3c/3x3_reduce"
  type: "Convolution"
  bottom: "inception_3b/output"
  top: "inception_3c/3x3_reduce"
  param {
    lr_mult: 10
    decay_mult: 10
  }
  convolution_param {
    num_output: 128
    bias_term: false
    kernel_size: 1
    engine: CAFFE
  }
}
layer {
  name: "inception_3c/3x3_reduce/bn"
  type: "BatchNorm"
  bottom: "inception_3c/3x3_reduce"
  top: "inception_3c/3x3_reduce"
  batch_norm_param {
    use_global_stats: false
  }
}
layer {
  name: "inception_3c/3x3_reduce/bn/scale"
  type: "Scale"
  bottom: "inception_3c/3x3_reduce"
  top: "inception_3c/3x3_reduce"
  scale_param {
    bias_term: true
  }
}
layer {
  name: "inception_3c/relu_3x3_reduce"
  type: "ReLU"
  bottom: "inception_3c/3x3_reduce"
  top: "inception_3c/3x3_reduce"
}
layer {
  name: "inception_3c/3x3"
  type: "Convolution"
  bottom: "inception_3c/3x3_reduce"
  top: "inception_3c/3x3"
  param {
    lr_mult: 10
    decay_mult: 10
  }
  convolution_param {
    num_output: 160
    bias_term: false
    pad: 1
    kernel_size: 3
    stride: 2
    engine: CAFFE
  }
}
layer {
  name: "inception_3c/3x3/bn"
  type: "BatchNorm"
  bottom: "inception_3c/3x3"
  top: "inception_3c/3x3"
  batch_norm_param {
    use_global_stats: false
  }
}
layer {
  name: "inception_3c/3x3/bn/scale"
  type: "Scale"
  bottom: "inception_3c/3x3"
  top: "inception_3c/3x3"
  scale_param {
    bias_term: true
  }
}
layer {
  name: "inception_3c/relu_3x3"
  type: "ReLU"
  bottom: "inception_3c/3x3"
  top: "inception_3c/3x3"
}
layer {
  name: "inception_3c/double3x3_reduce"
  type: "Convolution"
  bottom: "inception_3b/output"
  top: "inception_3c/double3x3_reduce"
  param {
    lr_mult: 10
    decay_mult: 10
  }
  convolution_param {
    num_output: 64
    bias_term: false
    kernel_size: 1
    engine: CAFFE
  }
}
layer {
  name: "inception_3c/double3x3_reduce/bn"
  type: "BatchNorm"
  bottom: "inception_3c/double3x3_reduce"
  top: "inception_3c/double3x3_reduce"
  batch_norm_param {
    use_global_stats: false
  }
}
layer {
  name: "inception_3c/double3x3_reduce/bn/scale"
  type: "Scale"
  bottom: "inception_3c/double3x3_reduce"
  top: "inception_3c/double3x3_reduce"
  scale_param {
    bias_term: true
  }
}
layer {
  name: "inception_3c/relu_double3x3_reduce"
  type: "ReLU"
  bottom: "inception_3c/double3x3_reduce"
  top: "inception_3c/double3x3_reduce"
}
layer {
  name: "inception_3c/double3x3a"
  type: "Convolution"
  bottom: "inception_3c/double3x3_reduce"
  top: "inception_3c/double3x3a"
  param {
    lr_mult: 10
    decay_mult: 10
  }
  convolution_param {
    num_output: 96
    bias_term: false
    pad: 1
    kernel_size: 3
    engine: CAFFE
  }
}
layer {
  name: "inception_3c/double3x3a/bn"
  type: "BatchNorm"
  bottom: "inception_3c/double3x3a"
  top: "inception_3c/double3x3a"
  batch_norm_param {
    use_global_stats: false
  }
}
layer {
  name: "inception_3c/double3x3a/bn/scale"
  type: "Scale"
  bottom: "inception_3c/double3x3a"
  top: "inception_3c/double3x3a"
  scale_param {
    bias_term: true
  }
}
layer {
  name: "inception_3c/relu_double3x3a"
  type: "ReLU"
  bottom: "inception_3c/double3x3a"
  top: "inception_3c/double3x3a"
}
layer {
  name: "inception_3c/double3x3b"
  type: "Convolution"
  bottom: "inception_3c/double3x3a"
  top: "inception_3c/double3x3b"
  param {
    lr_mult: 10
    decay_mult: 10
  }
  convolution_param {
    num_output: 96
    bias_term: false
    pad: 1
    kernel_size: 3
    stride: 2
    engine: CAFFE
  }
}
layer {
  name: "inception_3c/double3x3b/bn"
  type: "BatchNorm"
  bottom: "inception_3c/double3x3b"
  top: "inception_3c/double3x3b"
  batch_norm_param {
    use_global_stats: false
  }
}
layer {
  name: "inception_3c/double3x3b/bn/scale"
  type: "Scale"
  bottom: "inception_3c/double3x3b"
  top: "inception_3c/double3x3b"
  scale_param {
    bias_term: true
  }
}
layer {
  name: "inception_3c/relu_double3x3b"
  type: "ReLU"
  bottom: "inception_3c/double3x3b"
  top: "inception_3c/double3x3b"
}
layer {
  name: "inception_3c/pool/3x3_s2"
  type: "Pooling"
  bottom: "inception_3b/output"
  top: "inception_3c/pool/3x3_s2"
  pooling_param {
    pool: MAX
    kernel_size: 3
    stride: 2
  }
}
layer {
  name: "inception_3c/concat"
  type: "Concat"
  bottom: "inception_3c/3x3"
  bottom: "inception_3c/double3x3b"
  bottom: "inception_3c/pool/3x3_s2"
  top: "inception_3c/concat"
}
layer {
  name: "inception_3c_global_pool"
  type: "Pooling"
  bottom: "inception_3c/concat"
  top: "inception_3c_global_pool"
  pooling_param {
    pool: AVE
    engine: CAFFE
    global_pooling: true
  }
}
layer {
  name: "inception_3c_1x1_down"
  type: "Convolution"
  bottom: "inception_3c_global_pool"
  top: "inception_3c_1x1_down"
  param {
    lr_mult: 10
    decay_mult: 10
  }
  convolution_param {
    num_output: 36
    kernel_size: 1
    stride: 1
    engine: CAFFE
  }
}
layer {
  name: "inception_3c_1x1_down/relu"
  type: "ReLU"
  bottom: "inception_3c_1x1_down"
  top: "inception_3c_1x1_down"
}
layer {
  name: "inception_3c_1x1_up"
  type: "Convolution"
  bottom: "inception_3c_1x1_down"
  top: "inception_3c_1x1_up"
  param {
    lr_mult: 10
    decay_mult: 10
  }
  convolution_param {
    num_output: 576
    kernel_size: 1
    stride: 1
    engine: CAFFE
  }
}
layer {
  name: "inception_3c_prob"
  type: "Sigmoid"
  bottom: "inception_3c_1x1_up"
  top: "inception_3c_1x1_up"
}
layer {
  name: "inception_3c_prob_reshape"
  type: "Reshape"
  bottom: "inception_3c_1x1_up"
  top: "inception_3c_prob_reshape"
  reshape_param {
    shape {
      dim: 0
      dim: 0
    }
  }
}
layer {
  name: "inception_3c_scale"
  type: "Scale"
  bottom: "inception_3c/concat"
  bottom: "inception_3c_prob_reshape"
  top: "inception_3c/output"
  scale_param {
    axis: 0
    bias_term: false
  }
}
layer {
  name: "inception_4a/1x1"
  type: "Convolution"
  bottom: "inception_3c/output"
  top: "inception_4a/1x1"
  param {
    lr_mult: 10
    decay_mult: 10
  }
  convolution_param {
    num_output: 224
    bias_term: false
    kernel_size: 1
    engine: CAFFE
  }
}
layer {
  name: "inception_4a/1x1/bn"
  type: "BatchNorm"
  bottom: "inception_4a/1x1"
  top: "inception_4a/1x1"
  batch_norm_param {
    use_global_stats: false
  }
}
layer {
  name: "inception_4a/1x1/bn/scale"
  type: "Scale"
  bottom: "inception_4a/1x1"
  top: "inception_4a/1x1"
  scale_param {
    bias_term: true
  }
}
layer {
  name: "inception_4a/relu_1x1"
  type: "ReLU"
  bottom: "inception_4a/1x1"
  top: "inception_4a/1x1"
}
layer {
  name: "inception_4a/3x3_reduce"
  type: "Convolution"
  bottom: "inception_3c/output"
  top: "inception_4a/3x3_reduce"
  param {
    lr_mult: 10
    decay_mult: 10
  }
  convolution_param {
    num_output: 64
    bias_term: false
    kernel_size: 1
    engine: CAFFE
  }
}
layer {
  name: "inception_4a/3x3_reduce/bn"
  type: "BatchNorm"
  bottom: "inception_4a/3x3_reduce"
  top: "inception_4a/3x3_reduce"
  batch_norm_param {
    use_global_stats: false
  }
}
layer {
  name: "inception_4a/3x3_reduce/bn/scale"
  type: "Scale"
  bottom: "inception_4a/3x3_reduce"
  top: "inception_4a/3x3_reduce"
  scale_param {
    bias_term: true
  }
}
layer {
  name: "inception_4a/relu_3x3_reduce"
  type: "ReLU"
  bottom: "inception_4a/3x3_reduce"
  top: "inception_4a/3x3_reduce"
}
layer {
  name: "inception_4a/3x3"
  type: "Convolution"
  bottom: "inception_4a/3x3_reduce"
  top: "inception_4a/3x3"
  param {
    lr_mult: 10
    decay_mult: 10
  }
  convolution_param {
    num_output: 96
    bias_term: false
    pad: 1
    kernel_size: 3
    engine: CAFFE
  }
}
layer {
  name: "inception_4a/3x3/bn"
  type: "BatchNorm"
  bottom: "inception_4a/3x3"
  top: "inception_4a/3x3"
  batch_norm_param {
    use_global_stats: false
  }
}
layer {
  name: "inception_4a/3x3/bn/scale"
  type: "Scale"
  bottom: "inception_4a/3x3"
  top: "inception_4a/3x3"
  scale_param {
    bias_term: true
  }
}
layer {
  name: "inception_4a/relu_3x3"
  type: "ReLU"
  bottom: "inception_4a/3x3"
  top: "inception_4a/3x3"
}
layer {
  name: "inception_4a/double3x3_reduce"
  type: "Convolution"
  bottom: "inception_3c/output"
  top: "inception_4a/double3x3_reduce"
  param {
    lr_mult: 10
    decay_mult: 10
  }
  convolution_param {
    num_output: 96
    bias_term: false
    kernel_size: 1
    engine: CAFFE
  }
}
layer {
  name: "inception_4a/double3x3_reduce/bn"
  type: "BatchNorm"
  bottom: "inception_4a/double3x3_reduce"
  top: "inception_4a/double3x3_reduce"
  batch_norm_param {
    use_global_stats: false
  }
}
layer {
  name: "inception_4a/double3x3_reduce/bn/scale"
  type: "Scale"
  bottom: "inception_4a/double3x3_reduce"
  top: "inception_4a/double3x3_reduce"
  scale_param {
    bias_term: true
  }
}
layer {
  name: "inception_4a/relu_double3x3_reduce"
  type: "ReLU"
  bottom: "inception_4a/double3x3_reduce"
  top: "inception_4a/double3x3_reduce"
}
layer {
  name: "inception_4a/double3x3a"
  type: "Convolution"
  bottom: "inception_4a/double3x3_reduce"
  top: "inception_4a/double3x3a"
  param {
    lr_mult: 10
    decay_mult: 10
  }
  convolution_param {
    num_output: 128
    bias_term: false
    pad: 1
    kernel_size: 3
    engine: CAFFE
  }
}
layer {
  name: "inception_4a/double3x3a/bn"
  type: "BatchNorm"
  bottom: "inception_4a/double3x3a"
  top: "inception_4a/double3x3a"
  batch_norm_param {
    use_global_stats: false
  }
}
layer {
  name: "inception_4a/double3x3a/bn/scale"
  type: "Scale"
  bottom: "inception_4a/double3x3a"
  top: "inception_4a/double3x3a"
  scale_param {
    bias_term: true
  }
}
layer {
  name: "inception_4a/relu_double3x3a"
  type: "ReLU"
  bottom: "inception_4a/double3x3a"
  top: "inception_4a/double3x3a"
}
layer {
  name: "inception_4a/double3x3b"
  type: "Convolution"
  bottom: "inception_4a/double3x3a"
  top: "inception_4a/double3x3b"
  param {
    lr_mult: 10
    decay_mult: 10
  }
  convolution_param {
    num_output: 128
    bias_term: false
    pad: 1
    kernel_size: 3
    engine: CAFFE
  }
}
layer {
  name: "inception_4a/double3x3b/bn"
  type: "BatchNorm"
  bottom: "inception_4a/double3x3b"
  top: "inception_4a/double3x3b"
  batch_norm_param {
    use_global_stats: false
  }
}
layer {
  name: "inception_4a/double3x3b/bn/scale"
  type: "Scale"
  bottom: "inception_4a/double3x3b"
  top: "inception_4a/double3x3b"
  scale_param {
    bias_term: true
  }
}
layer {
  name: "inception_4a/relu_double3x3b"
  type: "ReLU"
  bottom: "inception_4a/double3x3b"
  top: "inception_4a/double3x3b"
}
layer {
  name: "inception_4a/pool"
  type: "Pooling"
  bottom: "inception_3c/output"
  top: "inception_4a/pool"
  pooling_param {
    pool: AVE
    kernel_size: 3
    stride: 1
    pad: 1
  }
}
layer {
  name: "inception_4a/pool_proj"
  type: "Convolution"
  bottom: "inception_4a/pool"
  top: "inception_4a/pool_proj"
  param {
    lr_mult: 10
    decay_mult: 10
  }
  convolution_param {
    num_output: 128
    bias_term: false
    kernel_size: 1
    engine: CAFFE
  }
}
layer {
  name: "inception_4a/pool_proj/bn"
  type: "BatchNorm"
  bottom: "inception_4a/pool_proj"
  top: "inception_4a/pool_proj"
  batch_norm_param {
    use_global_stats: false
  }
}
layer {
  name: "inception_4a/pool_proj/bn/scale"
  type: "Scale"
  bottom: "inception_4a/pool_proj"
  top: "inception_4a/pool_proj"
  scale_param {
    bias_term: true
  }
}
layer {
  name: "inception_4a/relu_pool_proj"
  type: "ReLU"
  bottom: "inception_4a/pool_proj"
  top: "inception_4a/pool_proj"
}
layer {
  name: "inception_4a/concat"
  type: "Concat"
  bottom: "inception_4a/1x1"
  bottom: "inception_4a/3x3"
  bottom: "inception_4a/double3x3b"
  bottom: "inception_4a/pool_proj"
  top: "inception_4a/concat"
}
layer {
  name: "inception_4a_global_pool"
  type: "Pooling"
  bottom: "inception_4a/concat"
  top: "inception_4a_global_pool"
  pooling_param {
    pool: AVE
    engine: CAFFE
    global_pooling: true
  }
}
layer {
  name: "inception_4a_1x1_down"
  type: "Convolution"
  bottom: "inception_4a_global_pool"
  top: "inception_4a_1x1_down"
  param {
    lr_mult: 10
    decay_mult: 10
  }
  convolution_param {
    num_output: 36
    kernel_size: 1
    stride: 1
    engine: CAFFE
  }
}
layer {
  name: "inception_4a_1x1_down/relu"
  type: "ReLU"
  bottom: "inception_4a_1x1_down"
  top: "inception_4a_1x1_down"
}
layer {
  name: "inception_4a_1x1_up"
  type: "Convolution"
  bottom: "inception_4a_1x1_down"
  top: "inception_4a_1x1_up"
  param {
    lr_mult: 10
    decay_mult: 10
  }
  convolution_param {
    num_output: 576
    kernel_size: 1
    stride: 1
    engine: CAFFE
  }
}
layer {
  name: "inception_4a_prob"
  type: "Sigmoid"
  bottom: "inception_4a_1x1_up"
  top: "inception_4a_1x1_up"
}
layer {
  name: "inception_4a_prob_reshape"
  type: "Reshape"
  bottom: "inception_4a_1x1_up"
  top: "inception_4a_prob_reshape"
  
I1114 09:23:18.585743 31685 layer_factory.hpp:77] Creating layer data
I1114 09:23:18.585798 31685 net.cpp:100] Creating Layer data
I1114 09:23:18.585810 31685 net.cpp:408] data -> data
I1114 09:23:18.585844 31685 net.cpp:408] data -> label
I1114 09:23:18.585940 31685 image_data_layer.cpp:38] Opening file ./train.txt
I1114 09:23:18.596351 31685 image_data_layer.cpp:53] Shuffling data
I1114 09:23:18.599768 31685 image_data_layer.cpp:58] A total of 33746 images.
I1114 09:23:18.635686 31685 image_data_layer.cpp:85] output data size: 32,3,224,224
I1114 09:23:18.693593 31685 net.cpp:150] Setting up data
I1114 09:23:18.693655 31685 net.cpp:157] Top shape: 32 3 224 224 (4816896)
I1114 09:23:18.693665 31685 net.cpp:157] Top shape: 32 (32)
I1114 09:23:18.693670 31685 net.cpp:165] Memory required for data: 19267712
I1114 09:23:18.693680 31685 layer_factory.hpp:77] Creating layer conv1/7x7_s2
I1114 09:23:18.693704 31685 net.cpp:100] Creating Layer conv1/7x7_s2
I1114 09:23:18.693712 31685 net.cpp:434] conv1/7x7_s2 <- data
I1114 09:23:18.693735 31685 net.cpp:408] conv1/7x7_s2 -> conv1/7x7_s2
I1114 09:23:18.694185 31685 net.cpp:150] Setting up conv1/7x7_s2
I1114 09:23:18.694198 31685 net.cpp:157] Top shape: 32 64 112 112 (25690112)
I1114 09:23:18.694205 31685 net.cpp:165] Memory required for data: 122028160
I1114 09:23:18.694219 31685 layer_factory.hpp:77] Creating layer conv1/7x7_s2/bn
I1114 09:23:18.694231 31685 net.cpp:100] Creating Layer conv1/7x7_s2/bn
I1114 09:23:18.694237 31685 net.cpp:434] conv1/7x7_s2/bn <- conv1/7x7_s2
I1114 09:23:18.694262 31685 net.cpp:395] conv1/7x7_s2/bn -> conv1/7x7_s2 (in-place)
I1114 09:23:18.694885 31685 net.cpp:150] Setting up conv1/7x7_s2/bn
I1114 09:23:18.694909 31685 net.cpp:157] Top shape: 32 64 112 112 (25690112)
I1114 09:23:18.694934 31685 net.cpp:165] Memory required for data: 224788608
I1114 09:23:18.694960 31685 layer_factory.hpp:77] Creating layer conv1/7x7_s2/bn/scale
I1114 09:23:18.694979 31685 net.cpp:100] Creating Layer conv1/7x7_s2/bn/scale
I1114 09:23:18.694989 31685 net.cpp:434] conv1/7x7_s2/bn/scale <- conv1/7x7_s2
I1114 09:23:18.695003 31685 net.cpp:395] conv1/7x7_s2/bn/scale -> conv1/7x7_s2 (in-place)
I1114 09:23:18.695156 31685 layer_factory.hpp:77] Creating layer conv1/7x7_s2/bn/scale
I1114 09:23:18.695493 31685 net.cpp:150] Setting up conv1/7x7_s2/bn/scale
I1114 09:23:18.695513 31685 net.cpp:157] Top shape: 32 64 112 112 (25690112)
I1114 09:23:18.695520 31685 net.cpp:165] Memory required for data: 327549056
I1114 09:23:18.695540 31685 layer_factory.hpp:77] Creating layer conv1/relu_7x7
I1114 09:23:18.695557 31685 net.cpp:100] Creating Layer conv1/relu_7x7
I1114 09:23:18.695565 31685 net.cpp:434] conv1/relu_7x7 <- conv1/7x7_s2
I1114 09:23:18.695577 31685 net.cpp:395] conv1/relu_7x7 -> conv1/7x7_s2 (in-place)
I1114 09:23:20.100355 31685 net.cpp:150] Setting up conv1/relu_7x7
I1114 09:23:20.100459 31685 net.cpp:157] Top shape: 32 64 112 112 (25690112)
I1114 09:23:20.100466 31685 net.cpp:165] Memory required for data: 430309504
I1114 09:23:20.100477 31685 layer_factory.hpp:77] Creating layer pool1/3x3_s2
I1114 09:23:20.100528 31685 net.cpp:100] Creating Layer pool1/3x3_s2
I1114 09:23:20.100536 31685 net.cpp:434] pool1/3x3_s2 <- conv1/7x7_s2
I1114 09:23:20.100548 31685 net.cpp:408] pool1/3x3_s2 -> pool1/3x3_s2
I1114 09:23:20.100687 31685 net.cpp:150] Setting up pool1/3x3_s2
I1114 09:23:20.100697 31685 net.cpp:157] Top shape: 32 64 56 56 (6422528)
I1114 09:23:20.100703 31685 net.cpp:165] Memory required for data: 455999616
I1114 09:23:20.100706 31685 layer_factory.hpp:77] Creating layer conv2/3x3_reduce
I1114 09:23:20.100739 31685 net.cpp:100] Creating Layer conv2/3x3_reduce
I1114 09:23:20.100744 31685 net.cpp:434] conv2/3x3_reduce <- pool1/3x3_s2
I1114 09:23:20.100752 31685 net.cpp:408] conv2/3x3_reduce -> conv2/3x3_reduce
I1114 09:23:20.101083 31685 net.cpp:150] Setting up conv2/3x3_reduce
I1114 09:23:20.101094 31685 net.cpp:157] Top shape: 32 64 56 56 (6422528)
I1114 09:23:20.101099 31685 net.cpp:165] Memory required for data: 481689728
I1114 09:23:20.101117 31685 layer_factory.hpp:77] Creating layer conv2/3x3_reduce/bn
I1114 09:23:20.101136 31685 net.cpp:100] Creating Layer conv2/3x3_reduce/bn
I1114 09:23:20.101141 31685 net.cpp:434] conv2/3x3_reduce/bn <- conv2/3x3_reduce
I1114 09:23:20.101150 31685 net.cpp:395] conv2/3x3_reduce/bn -> conv2/3x3_reduce (in-place)
I1114 09:23:20.101505 31685 net.cpp:150] Setting up conv2/3x3_reduce/bn
I1114 09:23:20.101514 31685 net.cpp:157] Top shape: 32 64 56 56 (6422528)
I1114 09:23:20.101518 31685 net.cpp:165] Memory required for data: 507379840
I1114 09:23:20.101532 31685 layer_factory.hpp:77] Creating layer conv2/3x3_reduce/bn/scale
I1114 09:23:20.101565 31685 net.cpp:100] Creating Layer conv2/3x3_reduce/bn/scale
I1114 09:23:20.101570 31685 net.cpp:434] conv2/3x3_reduce/bn/scale <- conv2/3x3_reduce
I1114 09:23:20.101578 31685 net.cpp:395] conv2/3x3_reduce/bn/scale -> conv2/3x3_reduce (in-place)
I1114 09:23:20.101655 31685 layer_factory.hpp:77] Creating layer conv2/3x3_reduce/bn/scale
I1114 09:23:20.101861 31685 net.cpp:150] Setting up conv2/3x3_reduce/bn/scale
I1114 09:23:20.101871 31685 net.cpp:157] Top shape: 32 64 56 56 (6422528)
I1114 09:23:20.101876 31685 net.cpp:165] Memory required for data: 533069952
I1114 09:23:20.101884 31685 layer_factory.hpp:77] Creating layer conv2/relu_3x3_reduce
I1114 09:23:20.101898 31685 net.cpp:100] Creating Layer conv2/relu_3x3_reduce
I1114 09:23:20.101903 31685 net.cpp:434] conv2/relu_3x3_reduce <- conv2/3x3_reduce
I1114 09:23:20.101910 31685 net.cpp:395] conv2/relu_3x3_reduce -> conv2/3x3_reduce (in-place)
I1114 09:23:20.102694 31685 net.cpp:150] Setting up conv2/relu_3x3_reduce
I1114 09:23:20.102713 31685 net.cpp:157] Top shape: 32 64 56 56 (6422528)
I1114 09:23:20.102717 31685 net.cpp:165] Memory required for data: 558760064
I1114 09:23:20.102725 31685 layer_factory.hpp:77] Creating layer conv2/3x3
I1114 09:23:20.102736 31685 net.cpp:100] Creating Layer conv2/3x3
I1114 09:23:20.102757 31685 net.cpp:434] conv2/3x3 <- conv2/3x3_reduce
I1114 09:23:20.102766 31685 net.cpp:408] conv2/3x3 -> conv2/3x3
I1114 09:23:20.103263 31685 net.cpp:150] Setting up conv2/3x3
I1114 09:23:20.103276 31685 net.cpp:157] Top shape: 32 192 56 56 (19267584)
I1114 09:23:20.103291 31685 net.cpp:165] Memory required for data: 635830400
I1114 09:23:20.103298 31685 layer_factory.hpp:77] Creating layer conv2/3x3/bn
I1114 09:23:20.103307 31685 net.cpp:100] Creating Layer conv2/3x3/bn
I1114 09:23:20.103312 31685 net.cpp:434] conv2/3x3/bn <- conv2/3x3
I1114 09:23:20.103320 31685 net.cpp:395] conv2/3x3/bn -> conv2/3x3 (in-place)
I1114 09:23:20.103627 31685 net.cpp:150] Setting up conv2/3x3/bn
I1114 09:23:20.103636 31685 net.cpp:157] Top shape: 32 192 56 56 (19267584)
I1114 09:23:20.103641 31685 net.cpp:165] Memory required for data: 712900736
I1114 09:23:20.103649 31685 layer_factory.hpp:77] Creating layer conv2/3x3/bn/scale
I1114 09:23:20.103658 31685 net.cpp:100] Creating Layer conv2/3x3/bn/scale
I1114 09:23:20.103662 31685 net.cpp:434] conv2/3x3/bn/scale <- conv2/3x3
I1114 09:23:20.103680 31685 net.cpp:395] conv2/3x3/bn/scale -> conv2/3x3 (in-place)
I1114 09:23:20.103739 31685 layer_factory.hpp:77] Creating layer conv2/3x3/bn/scale
I1114 09:23:20.103915 31685 net.cpp:150] Setting up conv2/3x3/bn/scale
I1114 09:23:20.103925 31685 net.cpp:157] Top shape: 32 192 56 56 (19267584)
I1114 09:23:20.103929 31685 net.cpp:165] Memory required for data: 789971072
I1114 09:23:20.103941 31685 layer_factory.hpp:77] Creating layer conv2/relu_3x3
I1114 09:23:20.103950 31685 net.cpp:100] Creating Layer conv2/relu_3x3
I1114 09:23:20.103955 31685 net.cpp:434] conv2/relu_3x3 <- conv2/3x3
I1114 09:23:20.103961 31685 net.cpp:395] conv2/relu_3x3 -> conv2/3x3 (in-place)
I1114 09:23:20.104699 31685 net.cpp:150] Setting up conv2/relu_3x3
I1114 09:23:20.104717 31685 net.cpp:157] Top shape: 32 192 56 56 (19267584)
I1114 09:23:20.104722 31685 net.cpp:165] Memory required for data: 867041408
I1114 09:23:20.104738 31685 layer_factory.hpp:77] Creating layer pool2/3x3_s2
I1114 09:23:20.104748 31685 net.cpp:100] Creating Layer pool2/3x3_s2
I1114 09:23:20.104753 31685 net.cpp:434] pool2/3x3_s2 <- conv2/3x3
I1114 09:23:20.104768 31685 net.cpp:408] pool2/3x3_s2 -> pool2/3x3_s2
I1114 09:23:20.104845 31685 net.cpp:150] Setting up pool2/3x3_s2
I1114 09:23:20.104853 31685 net.cpp:157] Top shape: 32 192 28 28 (4816896)
I1114 09:23:20.104857 31685 net.cpp:165] Memory required for data: 886308992
I1114 09:23:20.104861 31685 layer_factory.hpp:77] Creating layer pool2/3x3_s2_pool2/3x3_s2_0_split
I1114 09:23:20.104882 31685 net.cpp:100] Creating Layer pool2/3x3_s2_pool2/3x3_s2_0_split
I1114 09:23:20.104887 31685 net.cpp:434] pool2/3x3_s2_pool2/3x3_s2_0_split <- pool2/3x3_s2
I1114 09:23:20.104895 31685 net.cpp:408] pool2/3x3_s2_pool2/3x3_s2_0_split -> pool2/3x3_s2_pool2/3x3_s2_0_split_0
I1114 09:23:20.104903 31685 net.cpp:408] pool2/3x3_s2_pool2/3x3_s2_0_split -> pool2/3x3_s2_pool2/3x3_s2_0_split_1
I1114 09:23:20.104914 31685 net.cpp:408] pool2/3x3_s2_pool2/3x3_s2_0_split -> pool2/3x3_s2_pool2/3x3_s2_0_split_2
I1114 09:23:20.104923 31685 net.cpp:408] pool2/3x3_s2_pool2/3x3_s2_0_split -> pool2/3x3_s2_pool2/3x3_s2_0_split_3
I1114 09:23:20.105041 31685 net.cpp:150] Setting up pool2/3x3_s2_pool2/3x3_s2_0_split
I1114 09:23:20.105048 31685 net.cpp:157] Top shape: 32 192 28 28 (4816896)
I1114 09:23:20.105056 31685 net.cpp:157] Top shape: 32 192 28 28 (4816896)
I1114 09:23:20.105062 31685 net.cpp:157] Top shape: 32 192 28 28 (4816896)
I1114 09:23:20.105067 31685 net.cpp:157] Top shape: 32 192 28 28 (4816896)
I1114 09:23:20.105072 31685 net.cpp:165] Memory required for data: 963379328
I1114 09:23:20.105077 31685 layer_factory.hpp:77] Creating layer inception_3a/1x1
I1114 09:23:20.105090 31685 net.cpp:100] Creating Layer inception_3a/1x1
I1114 09:23:20.105096 31685 net.cpp:434] inception_3a/1x1 <- pool2/3x3_s2_pool2/3x3_s2_0_split_0
I1114 09:23:20.105104 31685 net.cpp:408] inception_3a/1x1 -> inception_3a/1x1
I1114 09:23:20.105444 31685 net.cpp:150] Setting up inception_3a/1x1
I1114 09:23:20.105454 31685 net.cpp:157] Top shape: 32 64 28 28 (1605632)
I1114 09:23:20.105458 31685 net.cpp:165] Memory required for data: 969801856
I1114 09:23:20.105474 31685 layer_factory.hpp:77] Creating layer inception_3a/1x1/bn
I1114 09:23:20.105484 31685 net.cpp:100] Creating Layer inception_3a/1x1/bn
I1114 09:23:20.105497 31685 net.cpp:434] inception_3a/1x1/bn <- inception_3a/1x1
I1114 09:23:20.105505 31685 net.cpp:395] inception_3a/1x1/bn -> inception_3a/1x1 (in-place)
I1114 09:23:20.105808 31685 net.cpp:150] Setting up inception_3a/1x1/bn
I1114 09:23:20.105818 31685 net.cpp:157] Top shape: 32 64 28 28 (1605632)
I1114 09:23:20.105821 31685 net.cpp:165] Memory required for data: 976224384
I1114 09:23:20.105830 31685 layer_factory.hpp:77] Creating layer inception_3a/1x1/bn/scale
I1114 09:23:20.105839 31685 net.cpp:100] Creating Layer inception_3a/1x1/bn/scale
I1114 09:23:20.105844 31685 net.cpp:434] inception_3a/1x1/bn/scale <- inception_3a/1x1
I1114 09:23:20.105851 31685 net.cpp:395] inception_3a/1x1/bn/scale -> inception_3a/1x1 (in-place)
I1114 09:23:20.105921 31685 layer_factory.hpp:77] Creating layer inception_3a/1x1/bn/scale
I1114 09:23:20.106093 31685 net.cpp:150] Setting up inception_3a/1x1/bn/scale
I1114 09:23:20.106103 31685 net.cpp:157] Top shape: 32 64 28 28 (1605632)
I1114 09:23:20.106107 31685 net.cpp:165] Memory required for data: 982646912
I1114 09:23:20.106114 31685 layer_factory.hpp:77] Creating layer inception_3a/relu_1x1
I1114 09:23:20.106122 31685 net.cpp:100] Creating Layer inception_3a/relu_1x1
I1114 09:23:20.106127 31685 net.cpp:434] inception_3a/relu_1x1 <- inception_3a/1x1
I1114 09:23:20.106134 31685 net.cpp:395] inception_3a/relu_1x1 -> inception_3a/1x1 (in-place)
I1114 09:23:20.106616 31685 net.cpp:150] Setting up inception_3a/relu_1x1
I1114 09:23:20.106632 31685 net.cpp:157] Top shape: 32 64 28 28 (1605632)
I1114 09:23:20.106637 31685 net.cpp:165] Memory required for data: 989069440
I1114 09:23:20.106642 31685 layer_factory.hpp:77] Creating layer inception_3a/3x3_reduce
I1114 09:23:20.106653 31685 net.cpp:100] Creating Layer inception_3a/3x3_reduce
I1114 09:23:20.106658 31685 net.cpp:434] inception_3a/3x3_reduce <- pool2/3x3_s2_pool2/3x3_s2_0_split_1
I1114 09:23:20.106667 31685 net.cpp:408] inception_3a/3x3_reduce -> inception_3a/3x3_reduce
I1114 09:23:20.107043 31685 net.cpp:150] Setting up inception_3a/3x3_reduce
I1114 09:23:20.107053 31685 net.cpp:157] Top shape: 32 64 28 28 (1605632)
I1114 09:23:20.107056 31685 net.cpp:165] Memory required for data: 995491968
I1114 09:23:20.107064 31685 layer_factory.hpp:77] Creating layer inception_3a/3x3_reduce/bn
I1114 09:23:20.107074 31685 net.cpp:100] Creating Layer inception_3a/3x3_reduce/bn
I1114 09:23:20.107077 31685 net.cpp:434] inception_3a/3x3_reduce/bn <- inception_3a/3x3_reduce
I1114 09:23:20.107084 31685 net.cpp:395] inception_3a/3x3_reduce/bn -> inception_3a/3x3_reduce (in-place)
I1114 09:23:20.107404 31685 net.cpp:150] Setting up inception_3a/3x3_reduce/bn
I1114 09:23:20.107414 31685 net.cpp:157] Top shape: 32 64 28 28 (1605632)
I1114 09:23:20.107419 31685 net.cpp:165] Memory required for data: 1001914496
I1114 09:23:20.107427 31685 layer_factory.hpp:77] Creating layer inception_3a/3x3_reduce/bn/scale
I1114 09:23:20.107436 31685 net.cpp:100] Creating Layer inception_3a/3x3_reduce/bn/scale
I1114 09:23:20.107441 31685 net.cpp:434] inception_3a/3x3_reduce/bn/scale <- inception_3a/3x3_reduce
I1114 09:23:20.107450 31685 net.cpp:395] inception_3a/3x3_reduce/bn/scale -> inception_3a/3x3_reduce (in-place)
I1114 09:23:20.107508 31685 layer_factory.hpp:77] Creating layer inception_3a/3x3_reduce/bn/scale
I1114 09:23:20.107693 31685 net.cpp:150] Setting up inception_3a/3x3_reduce/bn/scale
I1114 09:23:20.107703 31685 net.cpp:157] Top shape: 32 64 28 28 (1605632)
I1114 09:23:20.107707 31685 net.cpp:165] Memory required for data: 1008337024
I1114 09:23:20.107714 31685 layer_factory.hpp:77] Creating layer inception_3a/relu_3x3_reduce
I1114 09:23:20.107723 31685 net.cpp:100] Creating Layer inception_3a/relu_3x3_reduce
I1114 09:23:20.107728 31685 net.cpp:434] inception_3a/relu_3x3_reduce <- inception_3a/3x3_reduce
I1114 09:23:20.107735 31685 net.cpp:395] inception_3a/relu_3x3_reduce -> inception_3a/3x3_reduce (in-place)
I1114 09:23:20.108532 31685 net.cpp:150] Setting up inception_3a/relu_3x3_reduce
I1114 09:23:20.108564 31685 net.cpp:157] Top shape: 32 64 28 28 (1605632)
I1114 09:23:20.108582 31685 net.cpp:165] Memory required for data: 1014759552
I1114 09:23:20.108587 31685 layer_factory.hpp:77] Creating layer inception_3a/3x3
I1114 09:23:20.108599 31685 net.cpp:100] Creating Layer inception_3a/3x3
I1114 09:23:20.108605 31685 net.cpp:434] inception_3a/3x3 <- inception_3a/3x3_reduce
I1114 09:23:20.108614 31685 net.cpp:408] inception_3a/3x3 -> inception_3a/3x3
I1114 09:23:20.108984 31685 net.cpp:150] Setting up inception_3a/3x3
I1114 09:23:20.108994 31685 net.cpp:157] Top shape: 32 64 28 28 (1605632)
I1114 09:23:20.108999 31685 net.cpp:165] Memory required for data: 1021182080
I1114 09:23:20.109016 31685 layer_factory.hpp:77] Creating layer inception_3a/3x3/bn
I1114 09:23:20.109026 31685 net.cpp:100] Creating Layer inception_3a/3x3/bn
I1114 09:23:20.109030 31685 net.cpp:434] inception_3a/3x3/bn <- inception_3a/3x3
I1114 09:23:20.109038 31685 net.cpp:395] inception_3a/3x3/bn -> inception_3a/3x3 (in-place)
I1114 09:23:20.109359 31685 net.cpp:150] Setting up inception_3a/3x3/bn
I1114 09:23:20.109385 31685 net.cpp:157] Top shape: 32 64 28 28 (1605632)
I1114 09:23:20.109390 31685 net.cpp:165] Memory required for data: 1027604608
I1114 09:23:20.109407 31685 layer_factory.hpp:77] Creating layer inception_3a/3x3/bn/scale
I1114 09:23:20.109418 31685 net.cpp:100] Creating Layer inception_3a/3x3/bn/scale
I1114 09:23:20.109422 31685 net.cpp:434] inception_3a/3x3/bn/scale <- inception_3a/3x3
I1114 09:23:20.109431 31685 net.cpp:395] inception_3a/3x3/bn/scale -> inception_3a/3x3 (in-place)
I1114 09:23:20.109508 31685 layer_factory.hpp:77] Creating layer inception_3a/3x3/bn/scale
I1114 09:23:20.109722 31685 net.cpp:150] Setting up inception_3a/3x3/bn/scale
I1114 09:23:20.109731 31685 net.cpp:157] Top shape: 32 64 28 28 (1605632)
I1114 09:23:20.109735 31685 net.cpp:165] Memory required for data: 1034027136
I1114 09:23:20.109743 31685 layer_factory.hpp:77] Creating layer inception_3a/relu_3x3
I1114 09:23:20.109751 31685 net.cpp:100] Creating Layer inception_3a/relu_3x3
I1114 09:23:20.109756 31685 net.cpp:434] inception_3a/relu_3x3 <- inception_3a/3x3
I1114 09:23:20.109763 31685 net.cpp:395] inception_3a/relu_3x3 -> inception_3a/3x3 (in-place)
I1114 09:23:20.110539 31685 net.cpp:150] Setting up inception_3a/relu_3x3
I1114 09:23:20.110560 31685 net.cpp:157] Top shape: 32 64 28 28 (1605632)
I1114 09:23:20.110564 31685 net.cpp:165] Memory required for data: 1040449664
I1114 09:23:20.110570 31685 layer_factory.hpp:77] Creating layer inception_3a/double3x3_reduce
I1114 09:23:20.110584 31685 net.cpp:100] Creating Layer inception_3a/double3x3_reduce
I1114 09:23:20.110589 31685 net.cpp:434] inception_3a/double3x3_reduce <- pool2/3x3_s2_pool2/3x3_s2_0_split_2
I1114 09:23:20.110599 31685 net.cpp:408] inception_3a/double3x3_reduce -> inception_3a/double3x3_reduce
I1114 09:23:20.110949 31685 net.cpp:150] Setting up inception_3a/double3x3_reduce
I1114 09:23:20.110960 31685 net.cpp:157] Top shape: 32 64 28 28 (1605632)
I1114 09:23:20.110965 31685 net.cpp:165] Memory required for data: 1046872192
I1114 09:23:20.110972 31685 layer_factory.hpp:77] Creating layer inception_3a/double3x3_reduce/bn
I1114 09:23:20.110981 31685 net.cpp:100] Creating Layer inception_3a/double3x3_reduce/bn
I1114 09:23:20.110997 31685 net.cpp:434] inception_3a/double3x3_reduce/bn <- inception_3a/double3x3_reduce
I1114 09:23:20.111006 31685 net.cpp:395] inception_3a/double3x3_reduce/bn -> inception_3a/double3x3_reduce (in-place)
I1114 09:23:20.111330 31685 net.cpp:150] Setting up inception_3a/double3x3_reduce/bn
I1114 09:23:20.111340 31685 net.cpp:157] Top shape: 32 64 28 28 (1605632)
I1114 09:23:20.111344 31685 net.cpp:165] Memory required for data: 1053294720
I1114 09:23:20.111353 31685 layer_factory.hpp:77] Creating layer inception_3a/double3x3_reduce/bn/scale
I1114 09:23:20.111364 31685 net.cpp:100] Creating Layer inception_3a/double3x3_reduce/bn/scale
I1114 09:23:20.111368 31685 net.cpp:434] inception_3a/double3x3_reduce/bn/scale <- inception_3a/double3x3_reduce
I1114 09:23:20.111377 31685 net.cpp:395] inception_3a/double3x3_reduce/bn/scale -> inception_3a/double3x3_reduce (in-place)
I1114 09:23:20.111451 31685 layer_factory.hpp:77] Creating layer inception_3a/double3x3_reduce/bn/scale
I1114 09:23:20.111654 31685 net.cpp:150] Setting up inception_3a/double3x3_reduce/bn/scale
I1114 09:23:20.111662 31685 net.cpp:157] Top shape: 32 64 28 28 (1605632)
I1114 09:23:20.111667 31685 net.cpp:165] Memory required for data: 1059717248
I1114 09:23:20.111675 31685 layer_factory.hpp:77] Creating layer inception_3a/relu_double3x3_reduce
I1114 09:23:20.111685 31685 net.cpp:100] Creating Layer inception_3a/relu_double3x3_reduce
I1114 09:23:20.111688 31685 net.cpp:434] inception_3a/relu_double3x3_reduce <- inception_3a/double3x3_reduce
I1114 09:23:20.111696 31685 net.cpp:395] inception_3a/relu_double3x3_reduce -> inception_3a/double3x3_reduce (in-place)
I1114 09:23:20.112458 31685 net.cpp:150] Setting up inception_3a/relu_double3x3_reduce
I1114 09:23:20.112488 31685 net.cpp:157] Top shape: 32 64 28 28 (1605632)
I1114 09:23:20.112493 31685 net.cpp:165] Memory required for data: 1066139776
I1114 09:23:20.112498 31685 layer_factory.hpp:77] Creating layer inception_3a/double3x3a
I1114 09:23:20.112521 31685 net.cpp:100] Creating Layer inception_3a/double3x3a
I1114 09:23:20.112526 31685 net.cpp:434] inception_3a/double3x3a <- inception_3a/double3x3_reduce
I1114 09:23:20.112534 31685 net.cpp:408] inception_3a/double3x3a -> inception_3a/double3x3a
I1114 09:23:20.112956 31685 net.cpp:150] Setting up inception_3a/double3x3a
I1114 09:23:20.112965 31685 net.cpp:157] Top shape: 32 96 28 28 (2408448)
I1114 09:23:20.112970 31685 net.cpp:165] Memory required for data: 1075773568
I1114 09:23:20.112977 31685 layer_factory.hpp:77] Creating layer inception_3a/double3x3a/bn
I1114 09:23:20.112988 31685 net.cpp:100] Creating Layer inception_3a/double3x3a/bn
I1114 09:23:20.112993 31685 net.cpp:434] inception_3a/double3x3a/bn <- inception_3a/double3x3a
I1114 09:23:20.113000 31685 net.cpp:395] inception_3a/double3x3a/bn -> inception_3a/double3x3a (in-place)
I1114 09:23:20.113333 31685 net.cpp:150] Setting up inception_3a/double3x3a/bn
I1114 09:23:20.113355 31685 net.cpp:157] Top shape: 32 96 28 28 (2408448)
I1114 09:23:20.113360 31685 net.cpp:165] Memory required for data: 1085407360
I1114 09:23:20.113368 31685 layer_factory.hpp:77] Creating layer inception_3a/double3x3a/bn/scale
I1114 09:23:20.113379 31685 net.cpp:100] Creating Layer inception_3a/double3x3a/bn/scale
I1114 09:23:20.113384 31685 net.cpp:434] inception_3a/double3x3a/bn/scale <- inception_3a/double3x3a
I1114 09:23:20.113391 31685 net.cpp:395] inception_3a/double3x3a/bn/scale -> inception_3a/double3x3a (in-place)
I1114 09:23:20.113453 31685 layer_factory.hpp:77] Creating layer inception_3a/double3x3a/bn/scale
I1114 09:23:20.113643 31685 net.cpp:150] Setting up inception_3a/double3x3a/bn/scale
I1114 09:23:20.113653 31685 net.cpp:157] Top shape: 32 96 28 28 (2408448)
I1114 09:23:20.113657 31685 net.cpp:165] Memory required for data: 1095041152
I1114 09:23:20.113665 31685 layer_factory.hpp:77] Creating layer inception_3a/relu_double3x3a
I1114 09:23:20.113674 31685 net.cpp:100] Creating Layer inception_3a/relu_double3x3a
I1114 09:23:20.113679 31685 net.cpp:434] inception_3a/relu_double3x3a <- inception_3a/double3x3a
I1114 09:23:20.113687 31685 net.cpp:395] inception_3a/relu_double3x3a -> inception_3a/double3x3a (in-place)
I1114 09:23:20.114205 31685 net.cpp:150] Setting up inception_3a/relu_double3x3a
I1114 09:23:20.114238 31685 net.cpp:157] Top shape: 32 96 28 28 (2408448)
I1114 09:23:20.114248 31685 net.cpp:165] Memory required for data: 1104674944
I1114 09:23:20.114255 31685 layer_factory.hpp:77] Creating layer inception_3a/double3x3b
I1114 09:23:20.114272 31685 net.cpp:100] Creating Layer inception_3a/double3x3b
I1114 09:23:20.114281 31685 net.cpp:434] inception_3a/double3x3b <- inception_3a/double3x3a
I1114 09:23:20.114295 31685 net.cpp:408] inception_3a/double3x3b -> inception_3a/double3x3b
I1114 09:23:20.114892 31685 net.cpp:150] Setting up inception_3a/double3x3b
I1114 09:23:20.114907 31685 net.cpp:157] Top shape: 32 96 28 28 (2408448)
I1114 09:23:20.114923 31685 net.cpp:165] Memory required for data: 1114308736
I1114 09:23:20.114933 31685 layer_factory.hpp:77] Creating layer inception_3a/double3x3b/bn
I1114 09:23:20.114943 31685 net.cpp:100] Creating Layer inception_3a/double3x3b/bn
I1114 09:23:20.114948 31685 net.cpp:434] inception_3a/double3x3b/bn <- inception_3a/double3x3b
I1114 09:23:20.114956 31685 net.cpp:395] inception_3a/double3x3b/bn -> inception_3a/double3x3b (in-place)
I1114 09:23:20.115316 31685 net.cpp:150] Setting up inception_3a/double3x3b/bn
I1114 09:23:20.115326 31685 net.cpp:157] Top shape: 32 96 28 28 (2408448)
I1114 09:23:20.115330 31685 net.cpp:165] Memory required for data: 1123942528
I1114 09:23:20.115339 31685 layer_factory.hpp:77] Creating layer inception_3a/double3x3b/bn/scale
I1114 09:23:20.115350 31685 net.cpp:100] Creating Layer inception_3a/double3x3b/bn/scale
I1114 09:23:20.115355 31685 net.cpp:434] inception_3a/double3x3b/bn/scale <- inception_3a/double3x3b
I1114 09:23:20.115361 31685 net.cpp:395] inception_3a/double3x3b/bn/scale -> inception_3a/double3x3b (in-place)
I1114 09:23:20.115432 31685 layer_factory.hpp:77] Creating layer inception_3a/double3x3b/bn/scale
I1114 09:23:20.115634 31685 net.cpp:150] Setting up inception_3a/double3x3b/bn/scale
I1114 09:23:20.115644 31685 net.cpp:157] Top shape: 32 96 28 28 (2408448)
I1114 09:23:20.115648 31685 net.cpp:165] Memory required for data: 1133576320
I1114 09:23:20.115656 31685 layer_factory.hpp:77] Creating layer inception_3a/relu_double3x3b
I1114 09:23:20.115664 31685 net.cpp:100] Creating Layer inception_3a/relu_double3x3b
I1114 09:23:20.115669 31685 net.cpp:434] inception_3a/relu_double3x3b <- inception_3a/double3x3b
I1114 09:23:20.115676 31685 net.cpp:395] inception_3a/relu_double3x3b -> inception_3a/double3x3b (in-place)
I1114 09:23:20.116535 31685 net.cpp:150] Setting up inception_3a/relu_double3x3b
I1114 09:23:20.116554 31685 net.cpp:157] Top shape: 32 96 28 28 (2408448)
I1114 09:23:20.116557 31685 net.cpp:165] Memory required for data: 1143210112
I1114 09:23:20.116564 31685 layer_factory.hpp:77] Creating layer inception_3a/pool
I1114 09:23:20.116575 31685 net.cpp:100] Creating Layer inception_3a/pool
I1114 09:23:20.116580 31685 net.cpp:434] inception_3a/pool <- pool2/3x3_s2_pool2/3x3_s2_0_split_3
I1114 09:23:20.116588 31685 net.cpp:408] inception_3a/pool -> inception_3a/pool
I1114 09:23:20.120218 31685 net.cpp:150] Setting up inception_3a/pool
I1114 09:23:20.120265 31685 net.cpp:157] Top shape: 32 192 28 28 (4816896)
I1114 09:23:20.120270 31685 net.cpp:165] Memory required for data: 1162477696
I1114 09:23:20.120278 31685 layer_factory.hpp:77] Creating layer inception_3a/pool_proj
I1114 09:23:20.120299 31685 net.cpp:100] Creating Layer inception_3a/pool_proj
I1114 09:23:20.120306 31685 net.cpp:434] inception_3a/pool_proj <- inception_3a/pool
I1114 09:23:20.120319 31685 net.cpp:408] inception_3a/pool_proj -> inception_3a/pool_proj
I1114 09:23:20.120682 31685 net.cpp:150] Setting up inception_3a/pool_proj
I1114 09:23:20.120692 31685 net.cpp:157] Top shape: 32 32 28 28 (802816)
I1114 09:23:20.120695 31685 net.cpp:165] Memory required for data: 1165688960
I1114 09:23:20.120708 31685 layer_factory.hpp:77] Creating layer inception_3a/pool_proj/bn
I1114 09:23:20.120718 31685 net.cpp:100] Creating Layer inception_3a/pool_proj/bn
I1114 09:23:20.120723 31685 net.cpp:434] inception_3a/pool_proj/bn <- inception_3a/pool_proj
I1114 09:23:20.120729 31685 net.cpp:395] inception_3a/pool_proj/bn -> inception_3a/pool_proj (in-place)
I1114 09:23:20.121073 31685 net.cpp:150] Setting up inception_3a/pool_proj/bn
I1114 09:23:20.121083 31685 net.cpp:157] Top shape: 32 32 28 28 (802816)
I1114 09:23:20.121086 31685 net.cpp:165] Memory required for data: 1168900224
I1114 09:23:20.121095 31685 layer_factory.hpp:77] Creating layer inception_3a/pool_proj/bn/scale
I1114 09:23:20.121106 31685 net.cpp:100] Creating Layer inception_3a/pool_proj/bn/scale
I1114 09:23:20.121110 31685 net.cpp:434] inception_3a/pool_proj/bn/scale <- inception_3a/pool_proj
I1114 09:23:20.121129 31685 net.cpp:395] inception_3a/pool_proj/bn/scale -> inception_3a/pool_proj (in-place)
I1114 09:23:20.121192 31685 layer_factory.hpp:77] Creating layer inception_3a/pool_proj/bn/scale
I1114 09:23:20.121376 31685 net.cpp:150] Setting up inception_3a/pool_proj/bn/scale
I1114 09:23:20.121384 31685 net.cpp:157] Top shape: 32 32 28 28 (802816)
I1114 09:23:20.121388 31685 net.cpp:165] Memory required for data: 1172111488
I1114 09:23:20.121395 31685 layer_factory.hpp:77] Creating layer inception_3a/relu_pool_proj
I1114 09:23:20.121404 31685 net.cpp:100] Creating Layer inception_3a/relu_pool_proj
I1114 09:23:20.121409 31685 net.cpp:434] inception_3a/relu_pool_proj <- inception_3a/pool_proj
I1114 09:23:20.121415 31685 net.cpp:395] inception_3a/relu_pool_proj -> inception_3a/pool_proj (in-place)
I1114 09:23:20.122097 31685 net.cpp:150] Setting up inception_3a/relu_pool_proj
I1114 09:23:20.122114 31685 net.cpp:157] Top shape: 32 32 28 28 (802816)
I1114 09:23:20.122118 31685 net.cpp:165] Memory required for data: 1175322752
I1114 09:23:20.122123 31685 layer_factory.hpp:77] Creating layer inception_3a/concat
I1114 09:23:20.122133 31685 net.cpp:100] Creating Layer inception_3a/concat
I1114 09:23:20.122138 31685 net.cpp:434] inception_3a/concat <- inception_3a/1x1
I1114 09:23:20.122145 31685 net.cpp:434] inception_3a/concat <- inception_3a/3x3
I1114 09:23:20.122150 31685 net.cpp:434] inception_3a/concat <- inception_3a/double3x3b
I1114 09:23:20.122155 31685 net.cpp:434] inception_3a/concat <- inception_3a/pool_proj
I1114 09:23:20.122162 31685 net.cpp:408] inception_3a/concat -> inception_3a/concat
I1114 09:23:20.122206 31685 net.cpp:150] Setting up inception_3a/concat
I1114 09:23:20.122215 31685 net.cpp:157] Top shape: 32 256 28 28 (6422528)
I1114 09:23:20.122217 31685 net.cpp:165] Memory required for data: 1201012864
I1114 09:23:20.122222 31685 layer_factory.hpp:77] Creating layer inception_3a/concat_inception_3a/concat_0_split
I1114 09:23:20.122231 31685 net.cpp:100] Creating Layer inception_3a/concat_inception_3a/concat_0_split
I1114 09:23:20.122236 31685 net.cpp:434] inception_3a/concat_inception_3a/concat_0_split <- inception_3a/concat
I1114 09:23:20.122242 31685 net.cpp:408] inception_3a/concat_inception_3a/concat_0_split -> inception_3a/concat_inception_3a/concat_0_split_0
I1114 09:23:20.122251 31685 net.cpp:408] inception_3a/concat_inception_3a/concat_0_split -> inception_3a/concat_inception_3a/concat_0_split_1
I1114 09:23:20.122321 31685 net.cpp:150] Setting up inception_3a/concat_inception_3a/concat_0_split
I1114 09:23:20.122329 31685 net.cpp:157] Top shape: 32 256 28 28 (6422528)
I1114 09:23:20.122334 31685 net.cpp:157] Top shape: 32 256 28 28 (6422528)
I1114 09:23:20.122339 31685 net.cpp:165] Memory required for data: 1252393088
I1114 09:23:20.122344 31685 layer_factory.hpp:77] Creating layer inception_3a_global_pool
I1114 09:23:20.122354 31685 net.cpp:100] Creating Layer inception_3a_global_pool
I1114 09:23:20.122357 31685 net.cpp:434] inception_3a_global_pool <- inception_3a/concat_inception_3a/concat_0_split_0
I1114 09:23:20.122365 31685 net.cpp:408] inception_3a_global_pool -> inception_3a_global_pool
I1114 09:23:20.122400 31685 net.cpp:150] Setting up inception_3a_global_pool
I1114 09:23:20.122407 31685 net.cpp:157] Top shape: 32 256 1 1 (8192)
I1114 09:23:20.122411 31685 net.cpp:165] Memory required for data: 1252425856
I1114 09:23:20.122416 31685 layer_factory.hpp:77] Creating layer inception_3a_1x1_down
I1114 09:23:20.122426 31685 net.cpp:100] Creating Layer inception_3a_1x1_down
I1114 09:23:20.122431 31685 net.cpp:434] inception_3a_1x1_down <- inception_3a_global_pool
I1114 09:23:20.122438 31685 net.cpp:408] inception_3a_1x1_down -> inception_3a_1x1_down
I1114 09:23:20.122928 31685 net.cpp:150] Setting up inception_3a_1x1_down
I1114 09:23:20.122941 31685 net.cpp:157] Top shape: 32 16 1 1 (512)
I1114 09:23:20.122944 31685 net.cpp:165] Memory required for data: 1252427904
I1114 09:23:20.122963 31685 layer_factory.hpp:77] Creating layer inception_3a_1x1_down/relu
I1114 09:23:20.122972 31685 net.cpp:100] Creating Layer inception_3a_1x1_down/relu
I1114 09:23:20.122983 31685 net.cpp:434] inception_3a_1x1_down/relu <- inception_3a_1x1_down
I1114 09:23:20.122992 31685 net.cpp:395] inception_3a_1x1_down/relu -> inception_3a_1x1_down (in-place)
I1114 09:23:20.123445 31685 net.cpp:150] Setting up inception_3a_1x1_down/relu
I1114 09:23:20.123456 31685 net.cpp:157] Top shape: 32 16 1 1 (512)
I1114 09:23:20.123459 31685 net.cpp:165] Memory required for data: 1252429952
I1114 09:23:20.123464 31685 layer_factory.hpp:77] Creating layer inception_3a_1x1_up
I1114 09:23:20.123474 31685 net.cpp:100] Creating Layer inception_3a_1x1_up
I1114 09:23:20.123479 31685 net.cpp:434] inception_3a_1x1_up <- inception_3a_1x1_down
I1114 09:23:20.123488 31685 net.cpp:408] inception_3a_1x1_up -> inception_3a_1x1_up
I1114 09:23:20.123880 31685 net.cpp:150] Setting up inception_3a_1x1_up
I1114 09:23:20.123889 31685 net.cpp:157] Top shape: 32 256 1 1 (8192)
I1114 09:23:20.123894 31685 net.cpp:165] Memory required for data: 1252462720
I1114 09:23:20.123903 31685 layer_factory.hpp:77] Creating layer inception_3a_prob
I1114 09:23:20.123910 31685 net.cpp:100] Creating Layer inception_3a_prob
I1114 09:23:20.123915 31685 net.cpp:434] inception_3a_prob <- inception_3a_1x1_up
I1114 09:23:20.123921 31685 net.cpp:395] inception_3a_prob -> inception_3a_1x1_up (in-place)
I1114 09:23:20.124640 31685 net.cpp:150] Setting up inception_3a_prob
I1114 09:23:20.124658 31685 net.cpp:157] Top shape: 32 256 1 1 (8192)
I1114 09:23:20.124662 31685 net.cpp:165] Memory required for data: 1252495488
I1114 09:23:20.124668 31685 layer_factory.hpp:77] Creating layer inception_3a_prob_reshape
I1114 09:23:20.124682 31685 net.cpp:100] Creating Layer inception_3a_prob_reshape
I1114 09:23:20.124688 31685 net.cpp:434] inception_3a_prob_reshape <- inception_3a_1x1_up
I1114 09:23:20.124696 31685 net.cpp:408] inception_3a_prob_reshape -> inception_3a_prob_reshape
I1114 09:23:20.124745 31685 net.cpp:150] Setting up inception_3a_prob_reshape
I1114 09:23:20.124753 31685 net.cpp:157] Top shape: 32 256 (8192)
I1114 09:23:20.124758 31685 net.cpp:165] Memory required for data: 1252528256
I1114 09:23:20.124761 31685 layer_factory.hpp:77] Creating layer inception_3a_scale
I1114 09:23:20.124773 31685 net.cpp:100] Creating Layer inception_3a_scale
I1114 09:23:20.124779 31685 net.cpp:434] inception_3a_scale <- inception_3a/concat_inception_3a/concat_0_split_1
I1114 09:23:20.124784 31685 net.cpp:434] inception_3a_scale <- inception_3a_prob_reshape
I1114 09:23:20.124792 31685 net.cpp:408] inception_3a_scale -> inception_3a/output
I1114 09:23:20.124907 31685 net.cpp:150] Setting up inception_3a_scale
I1114 09:23:20.124915 31685 net.cpp:157] Top shape: 32 256 28 28 (6422528)
I1114 09:23:20.124919 31685 net.cpp:165] Memory required for data: 1278218368
I1114 09:23:20.124924 31685 layer_factory.hpp:77] Creating layer inception_3a/output_inception_3a_scale_0_split
I1114 09:23:20.124933 31685 net.cpp:100] Creating Layer inception_3a/output_inception_3a_scale_0_split
I1114 09:23:20.124938 31685 net.cpp:434] inception_3a/output_inception_3a_scale_0_split <- inception_3a/output
I1114 09:23:20.124946 31685 net.cpp:408] inception_3a/output_inception_3a_scale_0_split -> inception_3a/output_inception_3a_scale_0_split_0
I1114 09:23:20.124955 31685 net.cpp:408] inception_3a/output_inception_3a_scale_0_split -> inception_3a/output_inception_3a_scale_0_split_1
I1114 09:23:20.124964 31685 net.cpp:408] inception_3a/output_inception_3a_scale_0_split -> inception_3a/output_inception_3a_scale_0_split_2
I1114 09:23:20.124972 31685 net.cpp:408] inception_3a/output_inception_3a_scale_0_split -> inception_3a/output_inception_3a_scale_0_split_3
I1114 09:23:20.125089 31685 net.cpp:150] Setting up inception_3a/output_inception_3a_scale_0_split
I1114 09:23:20.125098 31685 net.cpp:157] Top shape: 32 256 28 28 (6422528)
I1114 09:23:20.125104 31685 net.cpp:157] Top shape: 32 256 28 28 (6422528)
I1114 09:23:20.125110 31685 net.cpp:157] Top shape: 32 256 28 28 (6422528)
I1114 09:23:20.125115 31685 net.cpp:157] Top shape: 32 256 28 28 (6422528)
I1114 09:23:20.125128 31685 net.cpp:165] Memory required for data: 1380978816
I1114 09:23:20.125133 31685 layer_factory.hpp:77] Creating layer inception_3b/1x1
I1114 09:23:20.125144 31685 net.cpp:100] Creating Layer inception_3b/1x1
I1114 09:23:20.125149 31685 net.cpp:434] inception_3b/1x1 <- inception_3a/output_inception_3a_scale_0_split_0
I1114 09:23:20.125157 31685 net.cpp:408] inception_3b/1x1 -> inception_3b/1x1
I1114 09:23:20.125502 31685 net.cpp:150] Setting up inception_3b/1x1
I1114 09:23:20.125511 31685 net.cpp:157] Top shape: 32 64 28 28 (1605632)
I1114 09:23:20.125516 31685 net.cpp:165] Memory required for data: 1387401344
I1114 09:23:20.125538 31685 layer_factory.hpp:77] Creating layer inception_3b/1x1/bn
I1114 09:23:20.125550 31685 net.cpp:100] Creating Layer inception_3b/1x1/bn
I1114 09:23:20.125555 31685 net.cpp:434] inception_3b/1x1/bn <- inception_3b/1x1
I1114 09:23:20.125562 31685 net.cpp:395] inception_3b/1x1/bn -> inception_3b/1x1 (in-place)
I1114 09:23:20.125979 31685 net.cpp:150] Setting up inception_3b/1x1/bn
I1114 09:23:20.125993 31685 net.cpp:157] Top shape: 32 64 28 28 (1605632)
I1114 09:23:20.125996 31685 net.cpp:165] Memory required for data: 1393823872
I1114 09:23:20.126006 31685 layer_factory.hpp:77] Creating layer inception_3b/1x1/bn/scale
I1114 09:23:20.126016 31685 net.cpp:100] Creating Layer inception_3b/1x1/bn/scale
I1114 09:23:20.126021 31685 net.cpp:434] inception_3b/1x1/bn/scale <- inception_3b/1x1
I1114 09:23:20.126029 31685 net.cpp:395] inception_3b/1x1/bn/scale -> inception_3b/1x1 (in-place)
I1114 09:23:20.126101 31685 layer_factory.hpp:77] Creating layer inception_3b/1x1/bn/scale
I1114 09:23:20.126303 31685 net.cpp:150] Setting up inception_3b/1x1/bn/scale
I1114 09:23:20.126313 31685 net.cpp:157] Top shape: 32 64 28 28 (1605632)
I1114 09:23:20.126317 31685 net.cpp:165] Memory required for data: 1400246400
I1114 09:23:20.126325 31685 layer_factory.hpp:77] Creating layer inception_3b/relu_1x1
I1114 09:23:20.126334 31685 net.cpp:100] Creating Layer inception_3b/relu_1x1
I1114 09:23:20.126339 31685 net.cpp:434] inception_3b/relu_1x1 <- inception_3b/1x1
I1114 09:23:20.126346 31685 net.cpp:395] inception_3b/relu_1x1 -> inception_3b/1x1 (in-place)
I1114 09:23:20.127122 31685 net.cpp:150] Setting up inception_3b/relu_1x1
I1114 09:23:20.127142 31685 net.cpp:157] Top shape: 32 64 28 28 (1605632)
I1114 09:23:20.127147 31685 net.cpp:165] Memory required for data: 1406668928
I1114 09:23:20.127152 31685 layer_factory.hpp:77] Creating layer inception_3b/3x3_reduce
I1114 09:23:20.127166 31685 net.cpp:100] Creating Layer inception_3b/3x3_reduce
I1114 09:23:20.127171 31685 net.cpp:434] inception_3b/3x3_reduce <- inception_3a/output_inception_3a_scale_0_split_1
I1114 09:23:20.127180 31685 net.cpp:408] inception_3b/3x3_reduce -> inception_3b/3x3_reduce
I1114 09:23:20.129305 31685 net.cpp:150] Setting up inception_3b/3x3_reduce
I1114 09:23:20.129345 31685 net.cpp:157] Top shape: 32 64 28 28 (1605632)
I1114 09:23:20.129351 31685 net.cpp:165] Memory required for data: 1413091456
I1114 09:23:20.129366 31685 layer_factory.hpp:77] Creating layer inception_3b/3x3_reduce/bn
I1114 09:23:20.129382 31685 net.cpp:100] Creating Layer inception_3b/3x3_reduce/bn
I1114 09:23:20.129389 31685 net.cpp:434] inception_3b/3x3_reduce/bn <- inception_3b/3x3_reduce
I1114 09:23:20.129410 31685 net.cpp:395] inception_3b/3x3_reduce/bn -> inception_3b/3x3_reduce (in-place)
I1114 09:23:20.129801 31685 net.cpp:150] Setting up inception_3b/3x3_reduce/bn
I1114 09:23:20.129812 31685 net.cpp:157] Top shape: 32 64 28 28 (1605632)
I1114 09:23:20.129817 31685 net.cpp:165] Memory required for data: 1419513984
I1114 09:23:20.129827 31685 layer_factory.hpp:77] Creating layer inception_3b/3x3_reduce/bn/scale
I1114 09:23:20.129837 31685 net.cpp:100] Creating Layer inception_3b/3x3_reduce/bn/scale
I1114 09:23:20.129842 31685 net.cpp:434] inception_3b/3x3_reduce/bn/scale <- inception_3b/3x3_reduce
I1114 09:23:20.129850 31685 net.cpp:395] inception_3b/3x3_reduce/bn/scale -> inception_3b/3x3_reduce (in-place)
I1114 09:23:20.129953 31685 layer_factory.hpp:77] Creating layer inception_3b/3x3_reduce/bn/scale
I1114 09:23:20.130167 31685 net.cpp:150] Setting up inception_3b/3x3_reduce/bn/scale
I1114 09:23:20.130177 31685 net.cpp:157] Top shape: 32 64 28 28 (1605632)
I1114 09:23:20.130182 31685 net.cpp:165] Memory required for data: 1425936512
I1114 09:23:20.130189 31685 layer_factory.hpp:77] Creating layer inception_3b/relu_3x3_reduce
I1114 09:23:20.130199 31685 net.cpp:100] Creating Layer inception_3b/relu_3x3_reduce
I1114 09:23:20.130204 31685 net.cpp:434] inception_3b/relu_3x3_reduce <- inception_3b/3x3_reduce
I1114 09:23:20.130213 31685 net.cpp:395] inception_3b/relu_3x3_reduce -> inception_3b/3x3_reduce (in-place)
I1114 09:23:20.131147 31685 net.cpp:150] Setting up inception_3b/relu_3x3_reduce
I1114 09:23:20.131192 31685 net.cpp:157] Top shape: 32 64 28 28 (1605632)
I1114 09:23:20.131201 31685 net.cpp:165] Memory required for data: 1432359040
I1114 09:23:20.131209 31685 layer_factory.hpp:77] Creating layer inception_3b/3x3
I1114 09:23:20.131229 31685 net.cpp:100] Creating Layer inception_3b/3x3
I1114 09:23:20.131239 31685 net.cpp:434] inception_3b/3x3 <- inception_3b/3x3_reduce
I1114 09:23:20.131253 31685 net.cpp:408] inception_3b/3x3 -> inception_3b/3x3
I1114 09:23:20.131788 31685 net.cpp:150] Setting up inception_3b/3x3
I1114 09:23:20.131803 31685 net.cpp:157] Top shape: 32 96 28 28 (2408448)
I1114 09:23:20.131808 31685 net.cpp:165] Memory required for data: 1441992832
I1114 09:23:20.131815 31685 layer_factory.hpp:77] Creating layer inception_3b/3x3/bn
I1114 09:23:20.131853 31685 net.cpp:100] Creating Layer inception_3b/3x3/bn
I1114 09:23:20.131860 31685 net.cpp:434] inception_3b/3x3/bn <- inception_3b/3x3
I1114 09:23:20.131867 31685 net.cpp:395] inception_3b/3x3/bn -> inception_3b/3x3 (in-place)
I1114 09:23:20.132242 31685 net.cpp:150] Setting up inception_3b/3x3/bn
I1114 09:23:20.132252 31685 net.cpp:157] Top shape: 32 96 28 28 (2408448)
I1114 09:23:20.132256 31685 net.cpp:165] Memory required for data: 1451626624
I1114 09:23:20.132266 31685 layer_factory.hpp:77] Creating layer inception_3b/3x3/bn/scale
I1114 09:23:20.132277 31685 net.cpp:100] Creating Layer inception_3b/3x3/bn/scale
I1114 09:23:20.132282 31685 net.cpp:434] inception_3b/3x3/bn/scale <- inception_3b/3x3
I1114 09:23:20.132294 31685 net.cpp:395] inception_3b/3x3/bn/scale -> inception_3b/3x3 (in-place)
I1114 09:23:20.132370 31685 layer_factory.hpp:77] Creating layer inception_3b/3x3/bn/scale
I1114 09:23:20.132565 31685 net.cpp:150] Setting up inception_3b/3x3/bn/scale
I1114 09:23:20.132575 31685 net.cpp:157] Top shape: 32 96 28 28 (2408448)
I1114 09:23:20.132580 31685 net.cpp:165] Memory required for data: 1461260416
I1114 09:23:20.132596 31685 layer_factory.hpp:77] Creating layer inception_3b/relu_3x3
I1114 09:23:20.132604 31685 net.cpp:100] Creating Layer inception_3b/relu_3x3
I1114 09:23:20.132609 31685 net.cpp:434] inception_3b/relu_3x3 <- inception_3b/3x3
I1114 09:23:20.132617 31685 net.cpp:395] inception_3b/relu_3x3 -> inception_3b/3x3 (in-place)
I1114 09:23:20.133072 31685 net.cpp:150] Setting up inception_3b/relu_3x3
I1114 09:23:20.133101 31685 net.cpp:157] Top shape: 32 96 28 28 (2408448)
I1114 09:23:20.133106 31685 net.cpp:165] Memory required for data: 1470894208
I1114 09:23:20.133111 31685 layer_factory.hpp:77] Creating layer inception_3b/double3x3_reduce
I1114 09:23:20.133122 31685 net.cpp:100] Creating Layer inception_3b/double3x3_reduce
I1114 09:23:20.133128 31685 net.cpp:434] inception_3b/double3x3_reduce <- inception_3a/output_inception_3a_scale_0_split_2
I1114 09:23:20.133136 31685 net.cpp:408] inception_3b/double3x3_reduce -> inception_3b/double3x3_reduce
I1114 09:23:20.133487 31685 net.cpp:150] Setting up inception_3b/double3x3_reduce
I1114 09:23:20.133498 31685 net.cpp:157] Top shape: 32 64 28 28 (1605632)
I1114 09:23:20.133503 31685 net.cpp:165] Memory required for data: 1477316736
I1114 09:23:20.133509 31685 layer_factory.hpp:77] Creating layer inception_3b/double3x3_reduce/bn
I1114 09:23:20.133519 31685 net.cpp:100] Creating Layer inception_3b/double3x3_reduce/bn
I1114 09:23:20.133536 31685 net.cpp:434] inception_3b/double3x3_reduce/bn <- inception_3b/double3x3_reduce
I1114 09:23:20.133544 31685 net.cpp:395] inception_3b/double3x3_reduce/bn -> inception_3b/double3x3_reduce (in-place)
I1114 09:23:20.133891 31685 net.cpp:150] Setting up inception_3b/double3x3_reduce/bn
I1114 09:23:20.133900 31685 net.cpp:157] Top shape: 32 64 28 28 (1605632)
I1114 09:23:20.133905 31685 net.cpp:165] Memory required for data: 1483739264
I1114 09:23:20.133914 31685 layer_factory.hpp:77] Creating layer inception_3b/double3x3_reduce/bn/scale
I1114 09:23:20.133924 31685 net.cpp:100] Creating Layer inception_3b/double3x3_reduce/bn/scale
I1114 09:23:20.133929 31685 net.cpp:434] inception_3b/double3x3_reduce/bn/scale <- inception_3b/double3x3_reduce
I1114 09:23:20.133936 31685 net.cpp:395] inception_3b/double3x3_reduce/bn/scale -> inception_3b/double3x3_reduce (in-place)
I1114 09:23:20.134001 31685 layer_factory.hpp:77] Creating layer inception_3b/double3x3_reduce/bn/scale
I1114 09:23:20.134218 31685 net.cpp:150] Setting up inception_3b/double3x3_reduce/bn/scale
I1114 09:23:20.134227 31685 net.cpp:157] Top shape: 32 64 28 28 (1605632)
I1114 09:23:20.134232 31685 net.cpp:165] Memory required for data: 1490161792
I1114 09:23:20.134239 31685 layer_factory.hpp:77] Creating layer inception_3b/relu_double3x3_reduce
I1114 09:23:20.134248 31685 net.cpp:100] Creating Layer inception_3b/relu_double3x3_reduce
I1114 09:23:20.134253 31685 net.cpp:434] inception_3b/relu_double3x3_reduce <- inception_3b/double3x3_reduce
I1114 09:23:20.134260 31685 net.cpp:395] inception_3b/relu_double3x3_reduce -> inception_3b/double3x3_reduce (in-place)
I1114 09:23:20.135110 31685 net.cpp:150] Setting up inception_3b/relu_double3x3_reduce
I1114 09:23:20.135162 31685 net.cpp:157] Top shape: 32 64 28 28 (1605632)
I1114 09:23:20.135167 31685 net.cpp:165] Memory required for data: 1496584320
I1114 09:23:20.135174 31685 layer_factory.hpp:77] Creating layer inception_3b/double3x3a
I1114 09:23:20.135185 31685 net.cpp:100] Creating Layer inception_3b/double3x3a
I1114 09:23:20.135190 31685 net.cpp:434] inception_3b/double3x3a <- inception_3b/double3x3_reduce
I1114 09:23:20.135200 31685 net.cpp:408] inception_3b/double3x3a -> inception_3b/double3x3a
I1114 09:23:20.135634 31685 net.cpp:150] Setting up inception_3b/double3x3a
I1114 09:23:20.135645 31685 net.cpp:157] Top shape: 32 96 28 28 (2408448)
I1114 09:23:20.135649 31685 net.cpp:165] Memory required for data: 1506218112
I1114 09:23:20.135658 31685 layer_factory.hpp:77] Creating layer inception_3b/double3x3a/bn
I1114 09:23:20.135668 31685 net.cpp:100] Creating Layer inception_3b/double3x3a/bn
I1114 09:23:20.135689 31685 net.cpp:434] inception_3b/double3x3a/bn <- inception_3b/double3x3a
I1114 09:23:20.135696 31685 net.cpp:395] inception_3b/double3x3a/bn -> inception_3b/double3x3a (in-place)
I1114 09:23:20.136057 31685 net.cpp:150] Setting up inception_3b/double3x3a/bn
I1114 09:23:20.136067 31685 net.cpp:157] Top shape: 32 96 28 28 (2408448)
I1114 09:23:20.136071 31685 net.cpp:165] Memory required for data: 1515851904
I1114 09:23:20.136080 31685 layer_factory.hpp:77] Creating layer inception_3b/double3x3a/bn/scale
I1114 09:23:20.136090 31685 net.cpp:100] Creating Layer inception_3b/double3x3a/bn/scale
I1114 09:23:20.136096 31685 net.cpp:434] inception_3b/double3x3a/bn/scale <- inception_3b/double3x3a
I1114 09:23:20.136103 31685 net.cpp:395] inception_3b/double3x3a/bn/scale -> inception_3b/double3x3a (in-place)
I1114 09:23:20.136162 31685 layer_factory.hpp:77] Creating layer inception_3b/double3x3a/bn/scale
I1114 09:23:20.136375 31685 net.cpp:150] Setting up inception_3b/double3x3a/bn/scale
I1114 09:23:20.136384 31685 net.cpp:157] Top shape: 32 96 28 28 (2408448)
I1114 09:23:20.136389 31685 net.cpp:165] Memory required for data: 1525485696
I1114 09:23:20.136396 31685 layer_factory.hpp:77] Creating layer inception_3b/relu_double3x3a
I1114 09:23:20.136404 31685 net.cpp:100] Creating Layer inception_3b/relu_double3x3a
I1114 09:23:20.136410 31685 net.cpp:434] inception_3b/relu_double3x3a <- inception_3b/double3x3a
I1114 09:23:20.136427 31685 net.cpp:395] inception_3b/relu_double3x3a -> inception_3b/double3x3a (in-place)
I1114 09:23:20.137176 31685 net.cpp:150] Setting up inception_3b/relu_double3x3a
I1114 09:23:20.137192 31685 net.cpp:157] Top shape: 32 96 28 28 (2408448)
I1114 09:23:20.137197 31685 net.cpp:165] Memory required for data: 1535119488
I1114 09:23:20.137202 31685 layer_factory.hpp:77] Creating layer inception_3b/double3x3b
I1114 09:23:20.137214 31685 net.cpp:100] Creating Layer inception_3b/double3x3b
I1114 09:23:20.137220 31685 net.cpp:434] inception_3b/double3x3b <- inception_3b/double3x3a
I1114 09:23:20.137229 31685 net.cpp:408] inception_3b/double3x3b -> inception_3b/double3x3b
I1114 09:23:20.137753 31685 net.cpp:150] Setting up inception_3b/double3x3b
I1114 09:23:20.137764 31685 net.cpp:157] Top shape: 32 96 28 28 (2408448)
I1114 09:23:20.137769 31685 net.cpp:165] Memory required for data: 1544753280
I1114 09:23:20.137776 31685 layer_factory.hpp:77] Creating layer inception_3b/double3x3b/bn
I1114 09:23:20.137785 31685 net.cpp:100] Creating Layer inception_3b/double3x3b/bn
I1114 09:23:20.137790 31685 net.cpp:434] inception_3b/double3x3b/bn <- inception_3b/double3x3b
I1114 09:23:20.137799 31685 net.cpp:395] inception_3b/double3x3b/bn -> inception_3b/double3x3b (in-place)
I1114 09:23:20.138151 31685 net.cpp:150] Setting up inception_3b/double3x3b/bn
I1114 09:23:20.138160 31685 net.cpp:157] Top shape: 32 96 28 28 (2408448)
I1114 09:23:20.138165 31685 net.cpp:165] Memory required for data: 1554387072
I1114 09:23:20.138173 31685 layer_factory.hpp:77] Creating layer inception_3b/double3x3b/bn/scale
I1114 09:23:20.138192 31685 net.cpp:100] Creating Layer inception_3b/double3x3b/bn/scale
I1114 09:23:20.138197 31685 net.cpp:434] inception_3b/double3x3b/bn/scale <- inception_3b/double3x3b
I1114 09:23:20.138204 31685 net.cpp:395] inception_3b/double3x3b/bn/scale -> inception_3b/double3x3b (in-place)
I1114 09:23:20.138262 31685 layer_factory.hpp:77] Creating layer inception_3b/double3x3b/bn/scale
I1114 09:23:20.138450 31685 net.cpp:150] Setting up inception_3b/double3x3b/bn/scale
I1114 09:23:20.138484 31685 net.cpp:157] Top shape: 32 96 28 28 (2408448)
I1114 09:23:20.138491 31685 net.cpp:165] Memory required for data: 1564020864
I1114 09:23:20.138504 31685 layer_factory.hpp:77] Creating layer inception_3b/relu_double3x3b
I1114 09:23:20.138515 31685 net.cpp:100] Creating Layer inception_3b/relu_double3x3b
I1114 09:23:20.138522 31685 net.cpp:434] inception_3b/relu_double3x3b <- inception_3b/double3x3b
I1114 09:23:20.138533 31685 net.cpp:395] inception_3b/relu_double3x3b -> inception_3b/double3x3b (in-place)
I1114 09:23:20.139437 31685 net.cpp:150] Setting up inception_3b/relu_double3x3b
I1114 09:23:20.139456 31685 net.cpp:157] Top shape: 32 96 28 28 (2408448)
I1114 09:23:20.139461 31685 net.cpp:165] Memory required for data: 1573654656
I1114 09:23:20.139466 31685 layer_factory.hpp:77] Creating layer inception_3b/pool
I1114 09:23:20.139477 31685 net.cpp:100] Creating Layer inception_3b/pool
I1114 09:23:20.139483 31685 net.cpp:434] inception_3b/pool <- inception_3a/output_inception_3a_scale_0_split_3
I1114 09:23:20.139492 31685 net.cpp:408] inception_3b/pool -> inception_3b/pool
I1114 09:23:20.140030 31685 net.cpp:150] Setting up inception_3b/pool
I1114 09:23:20.140043 31685 net.cpp:157] Top shape: 32 256 28 28 (6422528)
I1114 09:23:20.140048 31685 net.cpp:165] Memory required for data: 1599344768
I1114 09:23:20.140053 31685 layer_factory.hpp:77] Creating layer inception_3b/pool_proj
I1114 09:23:20.140064 31685 net.cpp:100] Creating Layer inception_3b/pool_proj
I1114 09:23:20.140069 31685 net.cpp:434] inception_3b/pool_proj <- inception_3b/pool
I1114 09:23:20.140091 31685 net.cpp:408] inception_3b/pool_proj -> inception_3b/pool_proj
I1114 09:23:20.140480 31685 net.cpp:150] Setting up inception_3b/pool_proj
I1114 09:23:20.140489 31685 net.cpp:157] Top shape: 32 64 28 28 (1605632)
I1114 09:23:20.140493 31685 net.cpp:165] Memory required for data: 1605767296
I1114 09:23:20.140501 31685 layer_factory.hpp:77] Creating layer inception_3b/pool_proj/bn
I1114 09:23:20.140532 31685 net.cpp:100] Creating Layer inception_3b/pool_proj/bn
I1114 09:23:20.140537 31685 net.cpp:434] inception_3b/pool_proj/bn <- inception_3b/pool_proj
I1114 09:23:20.140544 31685 net.cpp:395] inception_3b/pool_proj/bn -> inception_3b/pool_proj (in-place)
I1114 09:23:20.140899 31685 net.cpp:150] Setting up inception_3b/pool_proj/bn
I1114 09:23:20.140908 31685 net.cpp:157] Top shape: 32 64 28 28 (1605632)
I1114 09:23:20.140913 31685 net.cpp:165] Memory required for data: 1612189824
I1114 09:23:20.140933 31685 layer_factory.hpp:77] Creating layer inception_3b/pool_proj/bn/scale
I1114 09:23:20.140942 31685 net.cpp:100] Creating Layer inception_3b/pool_proj/bn/scale
I1114 09:23:20.140946 31685 net.cpp:434] inception_3b/pool_proj/bn/scale <- inception_3b/pool_proj
I1114 09:23:20.140961 31685 net.cpp:395] inception_3b/pool_proj/bn/scale -> inception_3b/pool_proj (in-place)
I1114 09:23:20.141022 31685 layer_factory.hpp:77] Creating layer inception_3b/pool_proj/bn/scale
I1114 09:23:20.141278 31685 net.cpp:150] Setting up inception_3b/pool_proj/bn/scale
I1114 09:23:20.141286 31685 net.cpp:157] Top shape: 32 64 28 28 (1605632)
I1114 09:23:20.141290 31685 net.cpp:165] Memory required for data: 1618612352
I1114 09:23:20.141299 31685 layer_factory.hpp:77] Creating layer inception_3b/relu_pool_proj
I1114 09:23:20.141306 31685 net.cpp:100] Creating Layer inception_3b/relu_pool_proj
I1114 09:23:20.141310 31685 net.cpp:434] inception_3b/relu_pool_proj <- inception_3b/pool_proj
I1114 09:23:20.141317 31685 net.cpp:395] inception_3b/relu_pool_proj -> inception_3b/pool_proj (in-place)
I1114 09:23:20.144825 31685 net.cpp:150] Setting up inception_3b/relu_pool_proj
I1114 09:23:20.144882 31685 net.cpp:157] Top shape: 32 64 28 28 (1605632)
I1114 09:23:20.144887 31685 net.cpp:165] Memory required for data: 1625034880
I1114 09:23:20.144896 31685 layer_factory.hpp:77] Creating layer inception_3b/concat
I1114 09:23:20.144909 31685 net.cpp:100] Creating Layer inception_3b/concat
I1114 09:23:20.144917 31685 net.cpp:434] inception_3b/concat <- inception_3b/1x1
I1114 09:23:20.144925 31685 net.cpp:434] inception_3b/concat <- inception_3b/3x3
I1114 09:23:20.144932 31685 net.cpp:434] inception_3b/concat <- inception_3b/double3x3b
I1114 09:23:20.144937 31685 net.cpp:434] inception_3b/concat <- inception_3b/pool_proj
I1114 09:23:20.144945 31685 net.cpp:408] inception_3b/concat -> inception_3b/concat
I1114 09:23:20.145006 31685 net.cpp:150] Setting up inception_3b/concat
I1114 09:23:20.145015 31685 net.cpp:157] Top shape: 32 320 28 28 (8028160)
I1114 09:23:20.145020 31685 net.cpp:165] Memory required for data: 1657147520
I1114 09:23:20.145025 31685 layer_factory.hpp:77] Creating layer inception_3b/concat_inception_3b/concat_0_split
I1114 09:23:20.145033 31685 net.cpp:100] Creating Layer inception_3b/concat_inception_3b/concat_0_split
I1114 09:23:20.145038 31685 net.cpp:434] inception_3b/concat_inception_3b/concat_0_split <- inception_3b/concat
I1114 09:23:20.145046 31685 net.cpp:408] inception_3b/concat_inception_3b/concat_0_split -> inception_3b/concat_inception_3b/concat_0_split_0
I1114 09:23:20.145056 31685 net.cpp:408] inception_3b/concat_inception_3b/concat_0_split -> inception_3b/concat_inception_3b/concat_0_split_1
I1114 09:23:20.145119 31685 net.cpp:150] Setting up inception_3b/concat_inception_3b/concat_0_split
I1114 09:23:20.145126 31685 net.cpp:157] Top shape: 32 320 28 28 (8028160)
I1114 09:23:20.145133 31685 net.cpp:157] Top shape: 32 320 28 28 (8028160)
I1114 09:23:20.145138 31685 net.cpp:165] Memory required for data: 1721372800
I1114 09:23:20.145141 31685 layer_factory.hpp:77] Creating layer inception_3b_global_pool
I1114 09:23:20.145171 31685 net.cpp:100] Creating Layer inception_3b_global_pool
I1114 09:23:20.145175 31685 net.cpp:434] inception_3b_global_pool <- inception_3b/concat_inception_3b/concat_0_split_0
I1114 09:23:20.145184 31685 net.cpp:408] inception_3b_global_pool -> inception_3b_global_pool
I1114 09:23:20.145220 31685 net.cpp:150] Setting up inception_3b_global_pool
I1114 09:23:20.145239 31685 net.cpp:157] Top shape: 32 320 1 1 (10240)
I1114 09:23:20.145244 31685 net.cpp:165] Memory required for data: 1721413760
I1114 09:23:20.145248 31685 layer_factory.hpp:77] Creating layer inception_3b_1x1_down
I1114 09:23:20.145262 31685 net.cpp:100] Creating Layer inception_3b_1x1_down
I1114 09:23:20.145267 31685 net.cpp:434] inception_3b_1x1_down <- inception_3b_global_pool
I1114 09:23:20.145274 31685 net.cpp:408] inception_3b_1x1_down -> inception_3b_1x1_down
I1114 09:23:20.145692 31685 net.cpp:150] Setting up inception_3b_1x1_down
I1114 09:23:20.145701 31685 net.cpp:157] Top shape: 32 20 1 1 (640)
I1114 09:23:20.145705 31685 net.cpp:165] Memory required for data: 1721416320
I1114 09:23:20.145717 31685 layer_factory.hpp:77] Creating layer inception_3b_1x1_down/relu
I1114 09:23:20.145726 31685 net.cpp:100] Creating Layer inception_3b_1x1_down/relu
I1114 09:23:20.145730 31685 net.cpp:434] inception_3b_1x1_down/relu <- inception_3b_1x1_down
I1114 09:23:20.145737 31685 net.cpp:395] inception_3b_1x1_down/relu -> inception_3b_1x1_down (in-place)
I1114 09:23:20.146353 31685 net.cpp:150] Setting up inception_3b_1x1_down/relu
I1114 09:23:20.146368 31685 net.cpp:157] Top shape: 32 20 1 1 (640)
I1114 09:23:20.146371 31685 net.cpp:165] Memory required for data: 1721418880
I1114 09:23:20.146376 31685 layer_factory.hpp:77] Creating layer inception_3b_1x1_up
I1114 09:23:20.146387 31685 net.cpp:100] Creating Layer inception_3b_1x1_up
I1114 09:23:20.146394 31685 net.cpp:434] inception_3b_1x1_up <- inception_3b_1x1_down
I1114 09:23:20.146401 31685 net.cpp:408] inception_3b_1x1_up -> inception_3b_1x1_up
I1114 09:23:20.146888 31685 net.cpp:150] Setting up inception_3b_1x1_up
I1114 09:23:20.146900 31685 net.cpp:157] Top shape: 32 320 1 1 (10240)
I1114 09:23:20.146904 31685 net.cpp:165] Memory required for data: 1721459840
I1114 09:23:20.146914 31685 layer_factory.hpp:77] Creating layer inception_3b_prob
I1114 09:23:20.146922 31685 net.cpp:100] Creating Layer inception_3b_prob
I1114 09:23:20.146926 31685 net.cpp:434] inception_3b_prob <- inception_3b_1x1_up
I1114 09:23:20.146934 31685 net.cpp:395] inception_3b_prob -> inception_3b_1x1_up (in-place)
I1114 09:23:20.147629 31685 net.cpp:150] Setting up inception_3b_prob
I1114 09:23:20.147648 31685 net.cpp:157] Top shape: 32 320 1 1 (10240)
I1114 09:23:20.147652 31685 net.cpp:165] Memory required for data: 1721500800
I1114 09:23:20.147658 31685 layer_factory.hpp:77] Creating layer inception_3b_prob_reshape
I1114 09:23:20.147670 31685 net.cpp:100] Creating Layer inception_3b_prob_reshape
I1114 09:23:20.147675 31685 net.cpp:434] inception_3b_prob_reshape <- inception_3b_1x1_up
I1114 09:23:20.147683 31685 net.cpp:408] inception_3b_prob_reshape -> inception_3b_prob_reshape
I1114 09:23:20.147733 31685 net.cpp:150] Setting up inception_3b_prob_reshape
I1114 09:23:20.147742 31685 net.cpp:157] Top shape: 32 320 (10240)
I1114 09:23:20.147745 31685 net.cpp:165] Memory required for data: 1721541760
I1114 09:23:20.147749 31685 layer_factory.hpp:77] Creating layer inception_3b_scale
I1114 09:23:20.147761 31685 net.cpp:100] Creating Layer inception_3b_scale
I1114 09:23:20.147766 31685 net.cpp:434] inception_3b_scale <- inception_3b/concat_inception_3b/concat_0_split_1
I1114 09:23:20.147771 31685 net.cpp:434] inception_3b_scale <- inception_3b_prob_reshape
I1114 09:23:20.147779 31685 net.cpp:408] inception_3b_scale -> inception_3b/output
I1114 09:23:20.147891 31685 net.cpp:150] Setting up inception_3b_scale
I1114 09:23:20.147900 31685 net.cpp:157] Top shape: 32 320 28 28 (8028160)
I1114 09:23:20.147904 31685 net.cpp:165] Memory required for data: 1753654400
I1114 09:23:20.147908 31685 layer_factory.hpp:77] Creating layer inception_3b/output_inception_3b_scale_0_split
I1114 09:23:20.147917 31685 net.cpp:100] Creating Layer inception_3b/output_inception_3b_scale_0_split
I1114 09:23:20.147922 31685 net.cpp:434] inception_3b/output_inception_3b_scale_0_split <- inception_3b/output
I1114 09:23:20.147929 31685 net.cpp:408] inception_3b/output_inception_3b_scale_0_split -> inception_3b/output_inception_3b_scale_0_split_0
I1114 09:23:20.147948 31685 net.cpp:408] inception_3b/output_inception_3b_scale_0_split -> inception_3b/output_inception_3b_scale_0_split_1
I1114 09:23:20.147956 31685 net.cpp:408] inception_3b/output_inception_3b_scale_0_split -> inception_3b/output_inception_3b_scale_0_split_2
I1114 09:23:20.148038 31685 net.cpp:150] Setting up inception_3b/output_inception_3b_scale_0_split
I1114 09:23:20.148047 31685 net.cpp:157] Top shape: 32 320 28 28 (8028160)
I1114 09:23:20.148052 31685 net.cpp:157] Top shape: 32 320 28 28 (8028160)
I1114 09:23:20.148058 31685 net.cpp:157] Top shape: 32 320 28 28 (8028160)
I1114 09:23:20.148062 31685 net.cpp:165] Memory required for data: 1849992320
I1114 09:23:20.148066 31685 layer_factory.hpp:77] Creating layer inception_3c/3x3_reduce
I1114 09:23:20.148077 31685 net.cpp:100] Creating Layer inception_3c/3x3_reduce
I1114 09:23:20.148082 31685 net.cpp:434] inception_3c/3x3_reduce <- inception_3b/output_inception_3b_scale_0_split_0
I1114 09:23:20.148089 31685 net.cpp:408] inception_3c/3x3_reduce -> inception_3c/3x3_reduce
I1114 09:23:20.148473 31685 net.cpp:150] Setting up inception_3c/3x3_reduce
I1114 09:23:20.148483 31685 net.cpp:157] Top shape: 32 128 28 28 (3211264)
I1114 09:23:20.148488 31685 net.cpp:165] Memory required for data: 1862837376
I1114 09:23:20.148495 31685 layer_factory.hpp:77] Creating layer inception_3c/3x3_reduce/bn
I1114 09:23:20.148505 31685 net.cpp:100] Creating Layer inception_3c/3x3_reduce/bn
I1114 09:23:20.148510 31685 net.cpp:434] inception_3c/3x3_reduce/bn <- inception_3c/3x3_reduce
I1114 09:23:20.148517 31685 net.cpp:395] inception_3c/3x3_reduce/bn -> inception_3c/3x3_reduce (in-place)
I1114 09:23:20.148867 31685 net.cpp:150] Setting up inception_3c/3x3_reduce/bn
I1114 09:23:20.148877 31685 net.cpp:157] Top shape: 32 128 28 28 (3211264)
I1114 09:23:20.148881 31685 net.cpp:165] Memory required for data: 1875682432
I1114 09:23:20.148890 31685 layer_factory.hpp:77] Creating layer inception_3c/3x3_reduce/bn/scale
I1114 09:23:20.148900 31685 net.cpp:100] Creating Layer inception_3c/3x3_reduce/bn/scale
I1114 09:23:20.148903 31685 net.cpp:434] inception_3c/3x3_reduce/bn/scale <- inception_3c/3x3_reduce
I1114 09:23:20.148911 31685 net.cpp:395] inception_3c/3x3_reduce/bn/scale -> inception_3c/3x3_reduce (in-place)
I1114 09:23:20.148980 31685 layer_factory.hpp:77] Creating layer inception_3c/3x3_reduce/bn/scale
I1114 09:23:20.149192 31685 net.cpp:150] Setting up inception_3c/3x3_reduce/bn/scale
I1114 09:23:20.149201 31685 net.cpp:157] Top shape: 32 128 28 28 (3211264)
I1114 09:23:20.149205 31685 net.cpp:165] Memory required for data: 1888527488
I1114 09:23:20.149214 31685 layer_factory.hpp:77] Creating layer inception_3c/relu_3x3_reduce
I1114 09:23:20.149221 31685 net.cpp:100] Creating Layer inception_3c/relu_3x3_reduce
I1114 09:23:20.149226 31685 net.cpp:434] inception_3c/relu_3x3_reduce <- inception_3c/3x3_reduce
I1114 09:23:20.149250 31685 net.cpp:395] inception_3c/relu_3x3_reduce -> inception_3c/3x3_reduce (in-place)
I1114 09:23:20.149667 31685 net.cpp:150] Setting up inception_3c/relu_3x3_reduce
I1114 09:23:20.149679 31685 net.cpp:157] Top shape: 32 128 28 28 (3211264)
I1114 09:23:20.149683 31685 net.cpp:165] Memory required for data: 1901372544
I1114 09:23:20.149688 31685 layer_factory.hpp:77] Creating layer inception_3c/3x3
I1114 09:23:20.149699 31685 net.cpp:100] Creating Layer inception_3c/3x3
I1114 09:23:20.149704 31685 net.cpp:434] inception_3c/3x3 <- inception_3c/3x3_reduce
I1114 09:23:20.149713 31685 net.cpp:408] inception_3c/3x3 -> inception_3c/3x3
I1114 09:23:20.150301 31685 net.cpp:150] Setting up inception_3c/3x3
I1114 09:23:20.150312 31685 net.cpp:157] Top shape: 32 160 14 14 (1003520)
I1114 09:23:20.150317 31685 net.cpp:165] Memory required for data: 1905386624
I1114 09:23:20.150324 31685 layer_factory.hpp:77] Creating layer inception_3c/3x3/bn
I1114 09:23:20.150334 31685 net.cpp:100] Creating Layer inception_3c/3x3/bn
I1114 09:23:20.150339 31685 net.cpp:434] inception_3c/3x3/bn <- inception_3c/3x3
I1114 09:23:20.150347 31685 net.cpp:395] inception_3c/3x3/bn -> inception_3c/3x3 (in-place)
I1114 09:23:20.152730 31685 net.cpp:150] Setting up inception_3c/3x3/bn
I1114 09:23:20.152766 31685 net.cpp:157] Top shape: 32 160 14 14 (1003520)
I1114 09:23:20.152771 31685 net.cpp:165] Memory required for data: 1909400704
I1114 09:23:20.152788 31685 layer_factory.hpp:77] Creating layer inception_3c/3x3/bn/scale
I1114 09:23:20.152803 31685 net.cpp:100] Creating Layer inception_3c/3x3/bn/scale
I1114 09:23:20.152810 31685 net.cpp:434] inception_3c/3x3/bn/scale <- inception_3c/3x3
I1114 09:23:20.152832 31685 net.cpp:395] inception_3c/3x3/bn/scale -> inception_3c/3x3 (in-place)
I1114 09:23:20.152909 31685 layer_factory.hpp:77] Creating layer inception_3c/3x3/bn/scale
I1114 09:23:20.153103 31685 net.cpp:150] Setting up inception_3c/3x3/bn/scale
I1114 09:23:20.153112 31685 net.cpp:157] Top shape: 32 160 14 14 (1003520)
I1114 09:23:20.153116 31685 net.cpp:165] Memory required for data: 1913414784
I1114 09:23:20.153123 31685 layer_factory.hpp:77] Creating layer inception_3c/relu_3x3
I1114 09:23:20.153132 31685 net.cpp:100] Creating Layer inception_3c/relu_3x3
I1114 09:23:20.153137 31685 net.cpp:434] inception_3c/relu_3x3 <- inception_3c/3x3
I1114 09:23:20.153144 31685 net.cpp:395] inception_3c/relu_3x3 -> inception_3c/3x3 (in-place)
I1114 09:23:20.153985 31685 net.cpp:150] Setting up inception_3c/relu_3x3
I1114 09:23:20.154004 31685 net.cpp:157] Top shape: 32 160 14 14 (1003520)
I1114 09:23:20.154009 31685 net.cpp:165] Memory required for data: 1917428864
I1114 09:23:20.154014 31685 layer_factory.hpp:77] Creating layer inception_3c/double3x3_reduce
I1114 09:23:20.154031 31685 net.cpp:100] Creating Layer inception_3c/double3x3_reduce
I1114 09:23:20.154054 31685 net.cpp:434] inception_3c/double3x3_reduce <- inception_3b/output_inception_3b_scale_0_split_1
I1114 09:23:20.154063 31685 net.cpp:408] inception_3c/double3x3_reduce -> inception_3c/double3x3_reduce
I1114 09:23:20.154440 31685 net.cpp:150] Setting up inception_3c/double3x3_reduce
I1114 09:23:20.154451 31685 net.cpp:157] Top shape: 32 64 28 28 (1605632)
I1114 09:23:20.154486 31685 net.cpp:165] Memory required for data: 1923851392
I1114 09:23:20.154500 31685 layer_factory.hpp:77] Creating layer inception_3c/double3x3_reduce/bn
I1114 09:23:20.154513 31685 net.cpp:100] Creating Layer inception_3c/double3x3_reduce/bn
I1114 09:23:20.154520 31685 net.cpp:434] inception_3c/double3x3_reduce/bn <- inception_3c/double3x3_reduce
I1114 09:23:20.154528 31685 net.cpp:395] inception_3c/double3x3_reduce/bn -> inception_3c/double3x3_reduce (in-place)
I1114 09:23:20.154919 31685 net.cpp:150] Setting up inception_3c/double3x3_reduce/bn
I1114 09:23:20.154929 31685 net.cpp:157] Top shape: 32 64 28 28 (1605632)
I1114 09:23:20.154933 31685 net.cpp:165] Memory required for data: 1930273920
I1114 09:23:20.154943 31685 layer_factory.hpp:77] Creating layer inception_3c/double3x3_reduce/bn/scale
I1114 09:23:20.154953 31685 net.cpp:100] Creating Layer inception_3c/double3x3_reduce/bn/scale
I1114 09:23:20.154958 31685 net.cpp:434] inception_3c/double3x3_reduce/bn/scale <- inception_3c/double3x3_reduce
I1114 09:23:20.154964 31685 net.cpp:395] inception_3c/double3x3_reduce/bn/scale -> inception_3c/double3x3_reduce (in-place)
I1114 09:23:20.155030 31685 layer_factory.hpp:77] Creating layer inception_3c/double3x3_reduce/bn/scale
I1114 09:23:20.155236 31685 net.cpp:150] Setting up inception_3c/double3x3_reduce/bn/scale
I1114 09:23:20.155246 31685 net.cpp:157] Top shape: 32 64 28 28 (1605632)
I1114 09:23:20.155251 31685 net.cpp:165] Memory required for data: 1936696448
I1114 09:23:20.155258 31685 layer_factory.hpp:77] Creating layer inception_3c/relu_double3x3_reduce
I1114 09:23:20.155267 31685 net.cpp:100] Creating Layer inception_3c/relu_double3x3_reduce
I1114 09:23:20.155272 31685 net.cpp:434] inception_3c/relu_double3x3_reduce <- inception_3c/double3x3_reduce
I1114 09:23:20.155279 31685 net.cpp:395] inception_3c/relu_double3x3_reduce -> inception_3c/double3x3_reduce (in-place)
I1114 09:23:20.155993 31685 net.cpp:150] Setting up inception_3c/relu_double3x3_reduce
I1114 09:23:20.156025 31685 net.cpp:157] Top shape: 32 64 28 28 (1605632)
I1114 09:23:20.156030 31685 net.cpp:165] Memory required for data: 1943118976
I1114 09:23:20.156035 31685 layer_factory.hpp:77] Creating layer inception_3c/double3x3a
I1114 09:23:20.156060 31685 net.cpp:100] Creating Layer inception_3c/double3x3a
I1114 09:23:20.156066 31685 net.cpp:434] inception_3c/double3x3a <- inception_3c/double3x3_reduce
I1114 09:23:20.156075 31685 net.cpp:408] inception_3c/double3x3a -> inception_3c/double3x3a
I1114 09:23:20.156512 31685 net.cpp:150] Setting up inception_3c/double3x3a
I1114 09:23:20.156523 31685 net.cpp:157] Top shape: 32 96 28 28 (2408448)
I1114 09:23:20.156527 31685 net.cpp:165] Memory required for data: 1952752768
I1114 09:23:20.156554 31685 layer_factory.hpp:77] Creating layer inception_3c/double3x3a/bn
I1114 09:23:20.156563 31685 net.cpp:100] Creating Layer inception_3c/double3x3a/bn
I1114 09:23:20.156569 31685 net.cpp:434] inception_3c/double3x3a/bn <- inception_3c/double3x3a
I1114 09:23:20.156574 31685 net.cpp:395] inception_3c/double3x3a/bn -> inception_3c/double3x3a (in-place)
I1114 09:23:20.156919 31685 net.cpp:150] Setting up inception_3c/double3x3a/bn
I1114 09:23:20.156929 31685 net.cpp:157] Top shape: 32 96 28 28 (2408448)
I1114 09:23:20.156932 31685 net.cpp:165] Memory required for data: 1962386560
I1114 09:23:20.156941 31685 layer_factory.hpp:77] Creating layer inception_3c/double3x3a/bn/scale
I1114 09:23:20.156953 31685 net.cpp:100] Creating Layer inception_3c/double3x3a/bn/scale
I1114 09:23:20.156960 31685 net.cpp:434] inception_3c/double3x3a/bn/scale <- inception_3c/double3x3a
I1114 09:23:20.156965 31685 net.cpp:395] inception_3c/double3x3a/bn/scale -> inception_3c/double3x3a (in-place)
I1114 09:23:20.157030 31685 layer_factory.hpp:77] Creating layer inception_3c/double3x3a/bn/scale
I1114 09:23:20.157222 31685 net.cpp:150] Setting up inception_3c/double3x3a/bn/scale
I1114 09:23:20.157232 31685 net.cpp:157] Top shape: 32 96 28 28 (2408448)
I1114 09:23:20.157236 31685 net.cpp:165] Memory required for data: 1972020352
I1114 09:23:20.157244 31685 layer_factory.hpp:77] Creating layer inception_3c/relu_double3x3a
I1114 09:23:20.157260 31685 net.cpp:100] Creating Layer inception_3c/relu_double3x3a
I1114 09:23:20.157265 31685 net.cpp:434] inception_3c/relu_double3x3a <- inception_3c/double3x3a
I1114 09:23:20.157271 31685 net.cpp:395] inception_3c/relu_double3x3a -> inception_3c/double3x3a (in-place)
I1114 09:23:20.158097 31685 net.cpp:150] Setting up inception_3c/relu_double3x3a
I1114 09:23:20.158113 31685 net.cpp:157] Top shape: 32 96 28 28 (2408448)
I1114 09:23:20.158118 31685 net.cpp:165] Memory required for data: 1981654144
I1114 09:23:20.158123 31685 layer_factory.hpp:77] Creating layer inception_3c/double3x3b
I1114 09:23:20.158136 31685 net.cpp:100] Creating Layer inception_3c/double3x3b
I1114 09:23:20.158141 31685 net.cpp:434] inception_3c/double3x3b <- inception_3c/double3x3a
I1114 09:23:20.158151 31685 net.cpp:408] inception_3c/double3x3b -> inception_3c/double3x3b
I1114 09:23:20.158622 31685 net.cpp:150] Setting up inception_3c/double3x3b
I1114 09:23:20.158635 31685 net.cpp:157] Top shape: 32 96 14 14 (602112)
I1114 09:23:20.158639 31685 net.cpp:165] Memory required for data: 1984062592
I1114 09:23:20.158648 31685 layer_factory.hpp:77] Creating layer inception_3c/double3x3b/bn
I1114 09:23:20.158658 31685 net.cpp:100] Creating Layer inception_3c/double3x3b/bn
I1114 09:23:20.158663 31685 net.cpp:434] inception_3c/double3x3b/bn <- inception_3c/double3x3b
I1114 09:23:20.158671 31685 net.cpp:395] inception_3c/double3x3b/bn -> inception_3c/double3x3b (in-place)
I1114 09:23:20.159063 31685 net.cpp:150] Setting up inception_3c/double3x3b/bn
I1114 09:23:20.159072 31685 net.cpp:157] Top shape: 32 96 14 14 (602112)
I1114 09:23:20.159076 31685 net.cpp:165] Memory required for data: 1986471040
I1114 09:23:20.159085 31685 layer_factory.hpp:77] Creating layer inception_3c/double3x3b/bn/scale
I1114 09:23:20.159098 31685 net.cpp:100] Creating Layer inception_3c/double3x3b/bn/scale
I1114 09:23:20.159111 31685 net.cpp:434] inception_3c/double3x3b/bn/scale <- inception_3c/double3x3b
I1114 09:23:20.159122 31685 net.cpp:395] inception_3c/double3x3b/bn/scale -> inception_3c/double3x3b (in-place)
I1114 09:23:20.159198 31685 layer_factory.hpp:77] Creating layer inception_3c/double3x3b/bn/scale
I1114 09:23:20.159397 31685 net.cpp:150] Setting up inception_3c/double3x3b/bn/scale
I1114 09:23:20.159406 31685 net.cpp:157] Top shape: 32 96 14 14 (602112)
I1114 09:23:20.159410 31685 net.cpp:165] Memory required for data: 1988879488
I1114 09:23:20.159417 31685 layer_factory.hpp:77] Creating layer inception_3c/relu_double3x3b
I1114 09:23:20.159426 31685 net.cpp:100] Creating Layer inception_3c/relu_double3x3b
I1114 09:23:20.159431 31685 net.cpp:434] inception_3c/relu_double3x3b <- inception_3c/double3x3b
I1114 09:23:20.159436 31685 net.cpp:395] inception_3c/relu_double3x3b -> inception_3c/double3x3b (in-place)
I1114 09:23:20.160037 31685 net.cpp:150] Setting up inception_3c/relu_double3x3b
I1114 09:23:20.160058 31685 net.cpp:157] Top shape: 32 96 14 14 (602112)
I1114 09:23:20.160063 31685 net.cpp:165] Memory required for data: 1991287936
I1114 09:23:20.160068 31685 layer_factory.hpp:77] Creating layer inception_3c/pool/3x3_s2
I1114 09:23:20.160094 31685 net.cpp:100] Creating Layer inception_3c/pool/3x3_s2
I1114 09:23:20.160100 31685 net.cpp:434] inception_3c/pool/3x3_s2 <- inception_3b/output_inception_3b_scale_0_split_2
I1114 09:23:20.160128 31685 net.cpp:408] inception_3c/pool/3x3_s2 -> inception_3c/pool/3x3_s2
I1114 09:23:20.160210 31685 net.cpp:150] Setting up inception_3c/pool/3x3_s2
I1114 09:23:20.160218 31685 net.cpp:157] Top shape: 32 320 14 14 (2007040)
I1114 09:23:20.160223 31685 net.cpp:165] Memory required for data: 1999316096
I1114 09:23:20.160228 31685 layer_factory.hpp:77] Creating layer inception_3c/concat
I1114 09:23:20.160238 31685 net.cpp:100] Creating Layer inception_3c/concat
I1114 09:23:20.160243 31685 net.cpp:434] inception_3c/concat <- inception_3c/3x3
I1114 09:23:20.160249 31685 net.cpp:434] inception_3c/concat <- inception_3c/double3x3b
I1114 09:23:20.160254 31685 net.cpp:434] inception_3c/concat <- inception_3c/pool/3x3_s2
I1114 09:23:20.160262 31685 net.cpp:408] inception_3c/concat -> inception_3c/concat
I1114 09:23:20.160300 31685 net.cpp:150] Setting up inception_3c/concat
I1114 09:23:20.160310 31685 net.cpp:157] Top shape: 32 576 14 14 (3612672)
I1114 09:23:20.160313 31685 net.cpp:165] Memory required for data: 2013766784
I1114 09:23:20.160317 31685 layer_factory.hpp:77] Creating layer inception_3c/concat_inception_3c/concat_0_split
I1114 09:23:20.160326 31685 net.cpp:100] Creating Layer inception_3c/concat_inception_3c/concat_0_split
I1114 09:23:20.160331 31685 net.cpp:434] inception_3c/concat_inception_3c/concat_0_split <- inception_3c/concat
I1114 09:23:20.160338 31685 net.cpp:408] inception_3c/concat_inception_3c/concat_0_split -> inception_3c/concat_inception_3c/concat_0_split_0
I1114 09:23:20.160346 31685 net.cpp:408] inception_3c/concat_inception_3c/concat_0_split -> inception_3c/concat_inception_3c/concat_0_split_1
I1114 09:23:20.160403 31685 net.cpp:150] Setting up inception_3c/concat_inception_3c/concat_0_split
I1114 09:23:20.160431 31685 net.cpp:157] Top shape: 32 576 14 14 (3612672)
I1114 09:23:20.160436 31685 net.cpp:157] Top shape: 32 576 14 14 (3612672)
I1114 09:23:20.160440 31685 net.cpp:165] Memory required for data: 2042668160
I1114 09:23:20.160444 31685 layer_factory.hpp:77] Creating layer inception_3c_global_pool
I1114 09:23:20.160452 31685 net.cpp:100] Creating Layer inception_3c_global_pool
I1114 09:23:20.160456 31685 net.cpp:434] inception_3c_global_pool <- inception_3c/concat_inception_3c/concat_0_split_0
I1114 09:23:20.160465 31685 net.cpp:408] inception_3c_global_pool -> inception_3c_global_pool
I1114 09:23:20.160498 31685 net.cpp:150] Setting up inception_3c_global_pool
I1114 09:23:20.160506 31685 net.cpp:157] Top shape: 32 576 1 1 (18432)
I1114 09:23:20.160511 31685 net.cpp:165] Memory required for data: 2042741888
I1114 09:23:20.160514 31685 layer_factory.hpp:77] Creating layer inception_3c_1x1_down
I1114 09:23:20.160531 31685 net.cpp:100] Creating Layer inception_3c_1x1_down
I1114 09:23:20.160535 31685 net.cpp:434] inception_3c_1x1_down <- inception_3c_global_pool
I1114 09:23:20.160544 31685 net.cpp:408] inception_3c_1x1_down -> inception_3c_1x1_down
I1114 09:23:20.161000 31685 net.cpp:150] Setting up inception_3c_1x1_down
I1114 09:23:20.161010 31685 net.cpp:157] Top shape: 32 36 1 1 (1152)
I1114 09:23:20.161015 31685 net.cpp:165] Memory required for data: 2042746496
I1114 09:23:20.161022 31685 layer_factory.hpp:77] Creating layer inception_3c_1x1_down/relu
I1114 09:23:20.161032 31685 net.cpp:100] Creating Layer inception_3c_1x1_down/relu
I1114 09:23:20.161037 31685 net.cpp:434] inception_3c_1x1_down/relu <- inception_3c_1x1_down
I1114 09:23:20.161042 31685 net.cpp:395] inception_3c_1x1_down/relu -> inception_3c_1x1_down (in-place)
I1114 09:23:20.161917 31685 net.cpp:150] Setting up inception_3c_1x1_down/relu
I1114 09:23:20.161936 31685 net.cpp:157] Top shape: 32 36 1 1 (1152)
I1114 09:23:20.161942 31685 net.cpp:165] Memory required for data: 2042751104
I1114 09:23:20.161947 31685 layer_factory.hpp:77] Creating layer inception_3c_1x1_up
I1114 09:23:20.161958 31685 net.cpp:100] Creating Layer inception_3c_1x1_up
I1114 09:23:20.161963 31685 net.cpp:434] inception_3c_1x1_up <- inception_3c_1x1_down
I1114 09:23:20.161970 31685 net.cpp:408] inception_3c_1x1_up -> inception_3c_1x1_up
I1114 09:23:20.162426 31685 net.cpp:150] Setting up inception_3c_1x1_up
I1114 09:23:20.162437 31685 net.cpp:157] Top shape: 32 576 1 1 (18432)
I1114 09:23:20.162441 31685 net.cpp:165] Memory required for data: 2042824832
I1114 09:23:20.162451 31685 layer_factory.hpp:77] Creating layer inception_3c_prob
I1114 09:23:20.162487 31685 net.cpp:100] Creating Layer inception_3c_prob
I1114 09:23:20.162492 31685 net.cpp:434] inception_3c_prob <- inception_3c_1x1_up
I1114 09:23:20.162501 31685 net.cpp:395] inception_3c_prob -> inception_3c_1x1_up (in-place)
I1114 09:23:20.163249 31685 net.cpp:150] Setting up inception_3c_prob
I1114 09:23:20.163265 31685 net.cpp:157] Top shape: 32 576 1 1 (18432)
I1114 09:23:20.163269 31685 net.cpp:165] Memory required for data: 2042898560
I1114 09:23:20.163275 31685 layer_factory.hpp:77] Creating layer inception_3c_prob_reshape
I1114 09:23:20.163287 31685 net.cpp:100] Creating Layer inception_3c_prob_reshape
I1114 09:23:20.163293 31685 net.cpp:434] inception_3c_prob_reshape <- inception_3c_1x1_up
I1114 09:23:20.163300 31685 net.cpp:408] inception_3c_prob_reshape -> inception_3c_prob_reshape
I1114 09:23:20.163352 31685 net.cpp:150] Setting up inception_3c_prob_reshape
I1114 09:23:20.163359 31685 net.cpp:157] Top shape: 32 576 (18432)
I1114 09:23:20.163363 31685 net.cpp:165] Memory required for data: 2042972288
I1114 09:23:20.163367 31685 layer_factory.hpp:77] Creating layer inception_3c_scale
I1114 09:23:20.163377 31685 net.cpp:100] Creating Layer inception_3c_scale
I1114 09:23:20.163381 31685 net.cpp:434] inception_3c_scale <- inception_3c/concat_inception_3c/concat_0_split_1
I1114 09:23:20.163388 31685 net.cpp:434] inception_3c_scale <- inception_3c_prob_reshape
I1114 09:23:20.163395 31685 net.cpp:408] inception_3c_scale -> inception_3c/output
I1114 09:23:20.163527 31685 net.cpp:150] Setting up inception_3c_scale
I1114 09:23:20.163538 31685 net.cpp:157] Top shape: 32 576 14 14 (3612672)
I1114 09:23:20.163542 31685 net.cpp:165] Memory required for data: 2057422976
I1114 09:23:20.163547 31685 layer_factory.hpp:77] Creating layer inception_3c/output_inception_3c_scale_0_split
I1114 09:23:20.163555 31685 net.cpp:100] Creating Layer inception_3c/output_inception_3c_scale_0_split
I1114 09:23:20.163559 31685 net.cpp:434] inception_3c/output_inception_3c_scale_0_split <- inception_3c/output
I1114 09:23:20.163568 31685 net.cpp:408] inception_3c/output_inception_3c_scale_0_split -> inception_3c/output_inception_3c_scale_0_split_0
I1114 09:23:20.163596 31685 net.cpp:408] inception_3c/output_inception_3c_scale_0_split -> inception_3c/output_inception_3c_scale_0_split_1
I1114 09:23:20.163604 31685 net.cpp:408] inception_3c/output_inception_3c_scale_0_split -> inception_3c/output_inception_3c_scale_0_split_2
I1114 09:23:20.163620 31685 net.cpp:408] inception_3c/output_inception_3c_scale_0_split -> inception_3c/output_inception_3c_scale_0_split_3
I1114 09:23:20.163753 31685 net.cpp:150] Setting up inception_3c/output_inception_3c_scale_0_split
I1114 09:23:20.163763 31685 net.cpp:157] Top shape: 32 576 14 14 (3612672)
I1114 09:23:20.163769 31685 net.cpp:157] Top shape: 32 576 14 14 (3612672)
I1114 09:23:20.163774 31685 net.cpp:157] Top shape: 32 576 14 14 (3612672)
I1114 09:23:20.163779 31685 net.cpp:157] Top shape: 32 576 14 14 (3612672)
I1114 09:23:20.163784 31685 net.cpp:165] Memory required for data: 2115225728
I1114 09:23:20.163787 31685 layer_factory.hpp:77] Creating layer inception_4a/1x1
I1114 09:23:20.163797 31685 net.cpp:100] Creating Layer inception_4a/1x1
I1114 09:23:20.163805 31685 net.cpp:434] inception_4a/1x1 <- inception_3c/output_inception_3c_scale_0_split_0
I1114 09:23:20.163811 31685 net.cpp:408] inception_4a/1x1 -> inception_4a/1x1
I1114 09:23:20.164314 31685 net.cpp:150] Setting up inception_4a/1x1
I1114 09:23:20.164324 31685 net.cpp:157] Top shape: 32 224 14 14 (1404928)
I1114 09:23:20.164328 31685 net.cpp:165] Memory required for data: 2120845440
I1114 09:23:20.164335 31685 layer_factory.hpp:77] Creating layer inception_4a/1x1/bn
I1114 09:23:20.164346 31685 net.cpp:100] Creating Layer inception_4a/1x1/bn
I1114 09:23:20.164351 31685 net.cpp:434] inception_4a/1x1/bn <- inception_4a/1x1
I1114 09:23:20.164357 31685 net.cpp:395] inception_4a/1x1/bn -> inception_4a/1x1 (in-place)
I1114 09:23:20.164707 31685 net.cpp:150] Setting up inception_4a/1x1/bn
I1114 09:23:20.164717 31685 net.cpp:157] Top shape: 32 224 14 14 (1404928)
I1114 09:23:20.164721 31685 net.cpp:165] Memory required for data: 2126465152
I1114 09:23:20.164731 31685 layer_factory.hpp:77] Creating layer inception_4a/1x1/bn/scale
I1114 09:23:20.164741 31685 net.cpp:100] Creating Layer inception_4a/1x1/bn/scale
I1114 09:23:20.164746 31685 net.cpp:434] inception_4a/1x1/bn/scale <- inception_4a/1x1
I1114 09:23:20.164752 31685 net.cpp:395] inception_4a/1x1/bn/scale -> inception_4a/1x1 (in-place)
I1114 09:23:20.164819 31685 layer_factory.hpp:77] Creating layer inception_4a/1x1/bn/scale
I1114 09:23:20.165010 31685 net.cpp:150] Setting up inception_4a/1x1/bn/scale
I1114 09:23:20.165019 31685 net.cpp:157] Top shape: 32 224 14 14 (1404928)
I1114 09:23:20.165024 31685 net.cpp:165] Memory required for data: 2132084864
I1114 09:23:20.165031 31685 layer_factory.hpp:77] Creating layer inception_4a/relu_1x1
I1114 09:23:20.165078 31685 net.cpp:100] Creating Layer inception_4a/relu_1x1
I1114 09:23:20.165083 31685 net.cpp:434] inception_4a/relu_1x1 <- inception_4a/1x1
I1114 09:23:20.165089 31685 net.cpp:395] inception_4a/relu_1x1 -> inception_4a/1x1 (in-place)
I1114 09:23:20.169008 31685 net.cpp:150] Setting up inception_4a/relu_1x1
I1114 09:23:20.169054 31685 net.cpp:157] Top shape: 32 224 14 14 (1404928)
I1114 09:23:20.169059 31685 net.cpp:165] Memory required for data: 2137704576
I1114 09:23:20.169070 31685 layer_factory.hpp:77] Creating layer inception_4a/3x3_reduce
I1114 09:23:20.169093 31685 net.cpp:100] Creating Layer inception_4a/3x3_reduce
I1114 09:23:20.169100 31685 net.cpp:434] inception_4a/3x3_reduce <- inception_3c/output_inception_3c_scale_0_split_1
I1114 09:23:20.169111 31685 net.cpp:408] inception_4a/3x3_reduce -> inception_4a/3x3_reduce
I1114 09:23:20.169534 31685 net.cpp:150] Setting up inception_4a/3x3_reduce
I1114 09:23:20.169544 31685 net.cpp:157] Top shape: 32 64 14 14 (401408)
I1114 09:23:20.169549 31685 net.cpp:165] Memory required for data: 2139310208
I1114 09:23:20.169560 31685 layer_factory.hpp:77] Creating layer inception_4a/3x3_reduce/bn
I1114 09:23:20.169571 31685 net.cpp:100] Creating Layer inception_4a/3x3_reduce/bn
I1114 09:23:20.169577 31685 net.cpp:434] inception_4a/3x3_reduce/bn <- inception_4a/3x3_reduce
I1114 09:23:20.169585 31685 net.cpp:395] inception_4a/3x3_reduce/bn -> inception_4a/3x3_reduce (in-place)
I1114 09:23:20.169970 31685 net.cpp:150] Setting up inception_4a/3x3_reduce/bn
I1114 09:23:20.169997 31685 net.cpp:157] Top shape: 32 64 14 14 (401408)
I1114 09:23:20.170002 31685 net.cpp:165] Memory required for data: 2140915840
I1114 09:23:20.170011 31685 layer_factory.hpp:77] Creating layer inception_4a/3x3_reduce/bn/scale
I1114 09:23:20.170024 31685 net.cpp:100] Creating Layer inception_4a/3x3_reduce/bn/scale
I1114 09:23:20.170029 31685 net.cpp:434] inception_4a/3x3_reduce/bn/scale <- inception_4a/3x3_reduce
I1114 09:23:20.170039 31685 net.cpp:395] inception_4a/3x3_reduce/bn/scale -> inception_4a/3x3_reduce (in-place)
I1114 09:23:20.170135 31685 layer_factory.hpp:77] Creating layer inception_4a/3x3_reduce/bn/scale
I1114 09:23:20.170347 31685 net.cpp:150] Setting up inception_4a/3x3_reduce/bn/scale
I1114 09:23:20.170357 31685 net.cpp:157] Top shape: 32 64 14 14 (401408)
I1114 09:23:20.170362 31685 net.cpp:165] Memory required for data: 2142521472
I1114 09:23:20.170369 31685 layer_factory.hpp:77] Creating layer inception_4a/relu_3x3_reduce
I1114 09:23:20.170380 31685 net.cpp:100] Creating Layer inception_4a/relu_3x3_reduce
I1114 09:23:20.170385 31685 net.cpp:434] inception_4a/relu_3x3_reduce <- inception_4a/3x3_reduce
I1114 09:23:20.170392 31685 net.cpp:395] inception_4a/relu_3x3_reduce -> inception_4a/3x3_reduce (in-place)
I1114 09:23:20.171010 31685 net.cpp:150] Setting up inception_4a/relu_3x3_reduce
I1114 09:23:20.171023 31685 net.cpp:157] Top shape: 32 64 14 14 (401408)
I1114 09:23:20.171027 31685 net.cpp:165] Memory required for data: 2144127104
I1114 09:23:20.171032 31685 layer_factory.hpp:77] Creating layer inception_4a/3x3
I1114 09:23:20.171044 31685 net.cpp:100] Creating Layer inception_4a/3x3
I1114 09:23:20.171049 31685 net.cpp:434] inception_4a/3x3 <- inception_4a/3x3_reduce
I1114 09:23:20.171058 31685 net.cpp:408] inception_4a/3x3 -> inception_4a/3x3
I1114 09:23:20.171455 31685 net.cpp:150] Setting up inception_4a/3x3
I1114 09:23:20.171464 31685 net.cpp:157] Top shape: 32 96 14 14 (602112)
I1114 09:23:20.171468 31685 net.cpp:165] Memory required for data: 2146535552
I1114 09:23:20.171474 31685 layer_factory.hpp:77] Creating layer inception_4a/3x3/bn
I1114 09:23:20.171483 31685 net.cpp:100] Creating Layer inception_4a/3x3/bn
I1114 09:23:20.171489 31685 net.cpp:434] inception_4a/3x3/bn <- inception_4a/3x3
I1114 09:23:20.171495 31685 net.cpp:395] inception_4a/3x3/bn -> inception_4a/3x3 (in-place)
I1114 09:23:20.171838 31685 net.cpp:150] Setting up inception_4a/3x3/bn
I1114 09:23:20.171847 31685 net.cpp:157] Top shape: 32 96 14 14 (602112)
I1114 09:23:20.171851 31685 net.cpp:165] Memory required for data: 2148944000
I1114 09:23:20.171860 31685 layer_factory.hpp:77] Creating layer inception_4a/3x3/bn/scale
I1114 09:23:20.171869 31685 net.cpp:100] Creating Layer inception_4a/3x3/bn/scale
I1114 09:23:20.171875 31685 net.cpp:434] inception_4a/3x3/bn/scale <- inception_4a/3x3
I1114 09:23:20.171880 31685 net.cpp:395] inception_4a/3x3/bn/scale -> inception_4a/3x3 (in-place)
I1114 09:23:20.171960 31685 layer_factory.hpp:77] Creating layer inception_4a/3x3/bn/scale
I1114 09:23:20.172158 31685 net.cpp:150] Setting up inception_4a/3x3/bn/scale
I1114 09:23:20.172168 31685 net.cpp:157] Top shape: 32 96 14 14 (602112)
I1114 09:23:20.172171 31685 net.cpp:165] Memory required for data: 2151352448
I1114 09:23:20.172178 31685 layer_factory.hpp:77] Creating layer inception_4a/relu_3x3
I1114 09:23:20.172186 31685 net.cpp:100] Creating Layer inception_4a/relu_3x3
I1114 09:23:20.172191 31685 net.cpp:434] inception_4a/relu_3x3 <- inception_4a/3x3
I1114 09:23:20.172199 31685 net.cpp:395] inception_4a/relu_3x3 -> inception_4a/3x3 (in-place)
I1114 09:23:20.173094 31685 net.cpp:150] Setting up inception_4a/relu_3x3
I1114 09:23:20.173125 31685 net.cpp:157] Top shape: 32 96 14 14 (602112)
I1114 09:23:20.173128 31685 net.cpp:165] Memory required for data: 2153760896
I1114 09:23:20.173133 31685 layer_factory.hpp:77] Creating layer inception_4a/double3x3_reduce
I1114 09:23:20.173144 31685 net.cpp:100] Creating Layer inception_4a/double3x3_reduce
I1114 09:23:20.173177 31685 net.cpp:434] inception_4a/double3x3_reduce <- inception_3c/output_inception_3c_scale_0_split_2
I1114 09:23:20.173188 31685 net.cpp:408] inception_4a/double3x3_reduce -> inception_4a/double3x3_reduce
I1114 09:23:20.175312 31685 net.cpp:150] Setting up inception_4a/double3x3_reduce
I1114 09:23:20.175335 31685 net.cpp:157] Top shape: 32 96 14 14 (602112)
I1114 09:23:20.175339 31685 net.cpp:165] Memory required for data: 2156169344
I1114 09:23:20.175349 31685 layer_factory.hpp:77] Creating layer inception_4a/double3x3_reduce/bn
I1114 09:23:20.175361 31685 net.cpp:100] Creating Layer inception_4a/double3x3_reduce/bn
I1114 09:23:20.175367 31685 net.cpp:434] inception_4a/double3x3_reduce/bn <- inception_4a/double3x3_reduce
I1114 09:23:20.175377 31685 net.cpp:395] inception_4a/double3x3_reduce/bn -> inception_4a/double3x3_reduce (in-place)
I1114 09:23:20.175796 31685 net.cpp:150] Setting up inception_4a/double3x3_reduce/bn
I1114 09:23:20.175804 31685 net.cpp:157] Top shape: 32 96 14 14 (602112)
I1114 09:23:20.175808 31685 net.cpp:165] Memory required for data: 2158577792
I1114 09:23:20.175817 31685 layer_factory.hpp:77] Creating layer inception_4a/double3x3_reduce/bn/scale
I1114 09:23:20.175828 31685 net.cpp:100] Creating Layer inception_4a/double3x3_reduce/bn/scale
I1114 09:23:20.175833 31685 net.cpp:434] inception_4a/double3x3_reduce/bn/scale <- inception_4a/double3x3_reduce
I1114 09:23:20.175842 31685 net.cpp:395] inception_4a/double3x3_reduce/bn/scale -> inception_4a/double3x3_reduce (in-place)
I1114 09:23:20.175920 31685 layer_factory.hpp:77] Creating layer inception_4a/double3x3_reduce/bn/scale
I1114 09:23:20.176121 31685 net.cpp:150] Setting up inception_4a/double3x3_reduce/bn/scale
I1114 09:23:20.176131 31685 net.cpp:157] Top shape: 32 96 14 14 (602112)
I1114 09:23:20.176136 31685 net.cpp:165] Memory required for data: 2160986240
I1114 09:23:20.176142 31685 layer_factory.hpp:77] Creating layer inception_4a/relu_double3x3_reduce
I1114 09:23:20.176152 31685 net.cpp:100] Creating Layer inception_4a/relu_double3x3_reduce
I1114 09:23:20.176157 31685 net.cpp:434] inception_4a/relu_double3x3_reduce <- inception_4a/double3x3_reduce
I1114 09:23:20.176163 31685 net.cpp:395] inception_4a/relu_double3x3_reduce -> inception_4a/double3x3_reduce (in-place)
I1114 09:23:20.177011 31685 net.cpp:150] Setting up inception_4a/relu_double3x3_reduce
I1114 09:23:20.177027 31685 net.cpp:157] Top shape: 32 96 14 14 (602112)
I1114 09:23:20.177031 31685 net.cpp:165] Memory required for data: 2163394688
I1114 09:23:20.177037 31685 layer_factory.hpp:77] Creating layer inception_4a/double3x3a
I1114 09:23:20.177049 31685 net.cpp:100] Creating Layer inception_4a/double3x3a
I1114 09:23:20.177055 31685 net.cpp:434] inception_4a/double3x3a <- inception_4a/double3x3_reduce
I1114 09:23:20.177065 31685 net.cpp:408] inception_4a/double3x3a -> inception_4a/double3x3a
I1114 09:23:20.177533 31685 net.cpp:150] Setting up inception_4a/double3x3a
I1114 09:23:20.177544 31685 net.cpp:157] Top shape: 32 128 14 14 (802816)
I1114 09:23:20.177548 31685 net.cpp:165] Memory required for data: 2166605952
I1114 09:23:20.177572 31685 layer_factory.hpp:77] Creating layer inception_4a/double3x3a/bn
I1114 09:23:20.177582 31685 net.cpp:100] Creating Layer inception_4a/double3x3a/bn
I1114 09:23:20.177587 31685 net.cpp:434] inception_4a/double3x3a/bn <- inception_4a/double3x3a
I1114 09:23:20.177595 31685 net.cpp:395] inception_4a/double3x3a/bn -> inception_4a/double3x3a (in-place)
I1114 09:23:20.177978 31685 net.cpp:150] Setting up inception_4a/double3x3a/bn
I1114 09:23:20.178020 31685 net.cpp:157] Top shape: 32 128 14 14 (802816)
I1114 09:23:20.178037 31685 net.cpp:165] Memory required for data: 2169817216
I1114 09:23:20.178050 31685 layer_factory.hpp:77] Creating layer inception_4a/double3x3a/bn/scale
I1114 09:23:20.178061 31685 net.cpp:100] Creating Layer inception_4a/double3x3a/bn/scale
I1114 09:23:20.178066 31685 net.cpp:434] inception_4a/double3x3a/bn/scale <- inception_4a/double3x3a
I1114 09:23:20.178077 31685 net.cpp:395] inception_4a/double3x3a/bn/scale -> inception_4a/double3x3a (in-place)
I1114 09:23:20.178160 31685 layer_factory.hpp:77] Creating layer inception_4a/double3x3a/bn/scale
I1114 09:23:20.178346 31685 net.cpp:150] Setting up inception_4a/double3x3a/bn/scale
I1114 09:23:20.178355 31685 net.cpp:157] Top shape: 32 128 14 14 (802816)
I1114 09:23:20.178360 31685 net.cpp:165] Memory required for data: 2173028480
I1114 09:23:20.178369 31685 layer_factory.hpp:77] Creating layer inception_4a/relu_double3x3a
I1114 09:23:20.178378 31685 net.cpp:100] Creating Layer inception_4a/relu_double3x3a
I1114 09:23:20.178383 31685 net.cpp:434] inception_4a/relu_double3x3a <- inception_4a/double3x3a
I1114 09:23:20.178406 31685 net.cpp:395] inception_4a/relu_double3x3a -> inception_4a/double3x3a (in-place)
I1114 09:23:20.179226 31685 net.cpp:150] Setting up inception_4a/relu_double3x3a
I1114 09:23:20.179241 31685 net.cpp:157] Top shape: 32 128 14 14 (802816)
I1114 09:23:20.179245 31685 net.cpp:165] Memory required for data: 2176239744
I1114 09:23:20.179250 31685 layer_factory.hpp:77] Creating layer inception_4a/double3x3b
I1114 09:23:20.179262 31685 net.cpp:100] Creating Layer inception_4a/double3x3b
I1114 09:23:20.179267 31685 net.cpp:434] inception_4a/double3x3b <- inception_4a/double3x3a
I1114 09:23:20.179276 31685 net.cpp:408] inception_4a/double3x3b -> inception_4a/double3x3b
I1114 09:23:20.179754 31685 net.cpp:150] Setting up inception_4a/double3x3b
I1114 09:23:20.179764 31685 net.cpp:157] Top shape: 32 128 14 14 (802816)
I1114 09:23:20.179769 31685 net.cpp:165] Memory required for data: 2179451008
I1114 09:23:20.179775 31685 layer_factory.hpp:77] Creating layer inception_4a/double3x3b/bn
I1114 09:23:20.179785 31685 net.cpp:100] Creating Layer inception_4a/double3x3b/bn
I1114 09:23:20.179790 31685 net.cpp:434] inception_4a/double3x3b/bn <- inception_4a/double3x3b
I1114 09:23:20.179800 31685 net.cpp:395] inception_4a/double3x3b/bn -> inception_4a/double3x3b (in-place)
I1114 09:23:20.180109 31685 net.cpp:150] Setting up inception_4a/double3x3b/bn
I1114 09:23:20.180120 31685 net.cpp:157] Top shape: 32 128 14 14 (802816)
I1114 09:23:20.180124 31685 net.cpp:165] Memory required for data: 2182662272
I1114 09:23:20.180132 31685 layer_factory.hpp:77] Creating layer inception_4a/double3x3b/bn/scale
I1114 09:23:20.180140 31685 net.cpp:100] Creating Layer inception_4a/double3x3b/bn/scale
I1114 09:23:20.180145 31685 net.cpp:434] inception_4a/double3x3b/bn/scale <- inception_4a/double3x3b
I1114 09:23:20.180152 31685 net.cpp:395] inception_4a/double3x3b/bn/scale -> inception_4a/double3x3b (in-place)
I1114 09:23:20.180213 31685 layer_factory.hpp:77] Creating layer inception_4a/double3x3b/bn/scale
I1114 09:23:20.180374 31685 net.cpp:150] Setting up inception_4a/double3x3b/bn/scale
I1114 09:23:20.180382 31685 net.cpp:157] Top shape: 32 128 14 14 (802816)
I1114 09:23:20.180387 31685 net.cpp:165] Memory required for data: 2185873536
I1114 09:23:20.180393 31685 layer_factory.hpp:77] Creating layer inception_4a/relu_double3x3b
I1114 09:23:20.180402 31685 net.cpp:100] Creating Layer inception_4a/relu_double3x3b
I1114 09:23:20.180408 31685 net.cpp:434] inception_4a/relu_double3x3b <- inception_4a/double3x3b
I1114 09:23:20.180413 31685 net.cpp:395] inception_4a/relu_double3x3b -> inception_4a/double3x3b (in-place)
I1114 09:23:20.181138 31685 net.cpp:150] Setting up inception_4a/relu_double3x3b
I1114 09:23:20.181154 31685 net.cpp:157] Top shape: 32 128 14 14 (802816)
I1114 09:23:20.181159 31685 net.cpp:165] Memory required for data: 2189084800
I1114 09:23:20.181164 31685 layer_factory.hpp:77] Creating layer inception_4a/pool
I1114 09:23:20.181174 31685 net.cpp:100] Creating Layer inception_4a/pool
I1114 09:23:20.181179 31685 net.cpp:434] inception_4a/pool <- inception_3c/output_inception_3c_scale_0_split_3
I1114 09:23:20.181187 31685 net.cpp:408] inception_4a/pool -> inception_4a/pool
I1114 09:23:20.181900 31685 net.cpp:150] Setting up inception_4a/pool
I1114 09:23:20.181915 31685 net.cpp:157] Top shape: 32 576 14 14 (3612672)
I1114 09:23:20.181919 31685 net.cpp:165] Memory required for data: 2203535488
I1114 09:23:20.181929 31685 layer_factory.hpp:77] Creating layer inception_4a/pool_proj
I1114 09:23:20.181942 31685 net.cpp:100] Creating Layer inception_4a/pool_proj
I1114 09:23:20.181948 31685 net.cpp:434] inception_4a/pool_proj <- inception_4a/pool
I1114 09:23:20.181957 31685 net.cpp:408] inception_4a/pool_proj -> inception_4a/pool_proj
I1114 09:23:20.182356 31685 net.cpp:150] Setting up inception_4a/pool_proj
I1114 09:23:20.182368 31685 net.cpp:157] Top shape: 32 128 14 14 (802816)
I1114 09:23:20.182373 31685 net.cpp:165] Memory required for data: 2206746752
I1114 09:23:20.182379 31685 layer_factory.hpp:77] Creating layer inception_4a/pool_proj/bn
I1114 09:23:20.182386 31685 net.cpp:100] Creating Layer inception_4a/pool_proj/bn
I1114 09:23:20.182391 31685 net.cpp:434] inception_4a/pool_proj/bn <- inception_4a/pool_proj
I1114 09:23:20.182404 31685 net.cpp:395] inception_4a/pool_proj/bn -> inception_4a/pool_proj (in-place)
I1114 09:23:20.182782 31685 net.cpp:150] Setting up inception_4a/pool_proj/bn
I1114 09:23:20.182817 31685 net.cpp:157] Top shape: 32 128 14 14 (802816)
I1114 09:23:20.182821 31685 net.cpp:165] Memory required for data: 2209958016
I1114 09:23:20.182840 31685 layer_factory.hpp:77] Creating layer inception_4a/pool_proj/bn/scale
I1114 09:23:20.182849 31685 net.cpp:100] Creating Layer inception_4a/pool_proj/bn/scale
I1114 09:23:20.182854 31685 net.cpp:434] inception_4a/pool_proj/bn/scale <- inception_4a/pool_proj
I1114 09:23:20.182862 31685 net.cpp:395] inception_4a/pool_proj/bn/scale -> inception_4a/pool_proj (in-place)
I1114 09:23:20.182921 31685 layer_factory.hpp:77] Creating layer inception_4a/pool_proj/bn/scale
I1114 09:23:20.183081 31685 net.cpp:150] Setting up inception_4a/pool_proj/bn/scale
I1114 09:23:20.183090 31685 net.cpp:157] Top shape: 32 128 14 14 (802816)
I1114 09:23:20.183094 31685 net.cpp:165] Memory required for data: 2213169280
I1114 09:23:20.183101 31685 layer_factory.hpp:77] Creating layer inception_4a/relu_pool_proj
I1114 09:23:20.183107 31685 net.cpp:100] Creating Layer inception_4a/relu_pool_proj
I1114 09:23:20.183112 31685 net.cpp:434] inception_4a/relu_pool_proj <- inception_4a/pool_proj
I1114 09:23:20.183117 31685 net.cpp:395] inception_4a/relu_pool_proj -> inception_4a/pool_proj (in-place)
I1114 09:23:20.183755 31685 net.cpp:150] Setting up inception_4a/relu_pool_proj
I1114 09:23:20.183769 31685 net.cpp:157] Top shape: 32 128 14 14 (802816)
I1114 09:23:20.183773 31685 net.cpp:165] Memory required for data: 2216380544
I1114 09:23:20.183779 31685 layer_factory.hpp:77] Creating layer inception_4a/concat
I1114 09:23:20.183789 31685 net.cpp:100] Creating Layer inception_4a/concat
I1114 09:23:20.183794 31685 net.cpp:434] inception_4a/concat <- inception_4a/1x1
I1114 09:23:20.183799 31685 net.cpp:434] inception_4a/concat <- inception_4a/3x3
I1114 09:23:20.183804 31685 net.cpp:434] inception_4a/concat <- inception_4a/double3x3b
I1114 09:23:20.183809 31685 net.cpp:434] inception_4a/concat <- inception_4a/pool_proj
I1114 09:23:20.183813 31685 net.cpp:408] inception_4a/concat -> inception_4a/concat
I1114 09:23:20.183856 31685 net.cpp:150] Setting up inception_4a/concat
I1114 09:23:20.183866 31685 net.cpp:157] Top shape: 32 576 14 14 (3612672)
I1114 09:23:20.183869 31685 net.cpp:165] Memory required for data: 2230831232
I1114 09:23:20.183873 31685 layer_factory.hpp:77] Creating layer inception_4a/concat_inception_4a/concat_0_split
I1114 09:23:20.183881 31685 net.cpp:100] Creating Layer inception_4a/concat_inception_4a/concat_0_split
I1114 09:23:20.183885 31685 net.cpp:434] inception_4a/concat_inception_4a/concat_0_split <- inception_4a/concat
I1114 09:23:20.183892 31685 net.cpp:408] inception_4a/concat_inception_4a/concat_0_split -> inception_4a/concat_inception_4a/concat_0_split_0
I1114 09:23:20.183902 31685 net.cpp:408] inception_4a/concat_inception_4a/concat_0_split -> inception_4a/concat_inception_4a/concat_0_split_1
I1114 09:23:20.183954 31685 net.cpp:150] Setting up inception_4a/concat_inception_4a/concat_0_split
I1114 09:23:20.183964 31685 net.cpp:157] Top shape: 32 576 14 14 (3612672)
I1114 09:23:20.183974 31685 net.cpp:157] Top shape: 32 576 14 14 (3612672)
I1114 09:23:20.183979 31685 net.cpp:165] Memory required for data: 2259732608
I1114 09:23:20.183982 31685 layer_factory.hpp:77] Creating layer inception_4a_global_pool
I1114 09:23:20.183990 31685 net.cpp:100] Creating Layer inception_4a_global_pool
I1114 09:23:20.183995 31685 net.cpp:434] inception_4a_global_pool <- inception_4a/concat_inception_4a/concat_0_split_0
I1114 09:23:20.184000 31685 net.cpp:408] inception_4a_global_pool -> inception_4a_global_pool
I1114 09:23:20.184036 31685 net.cpp:150] Setting up inception_4a_global_pool
I1114 09:23:20.184044 31685 net.cpp:157] Top shape: 32 576 1 1 (18432)
I1114 09:23:20.184047 31685 net.cpp:165] Memory required for data: 2259806336
I1114 09:23:20.184051 31685 layer_factory.hpp:77] Creating layer inception_4a_1x1_down
I1114 09:23:20.184063 31685 net.cpp:100] Creating Layer inception_4a_1x1_down
I1114 09:23:20.184068 31685 net.cpp:434] inception_4a_1x1_down <- inception_4a_global_pool
I1114 09:23:20.184077 31685 net.cpp:408] inception_4a_1x1_down -> inception_4a_1x1_down
I1114 09:23:20.184461 31685 net.cpp:150] Setting up inception_4a_1x1_down
I1114 09:23:20.184470 31685 net.cpp:157] Top shape: 32 36 1 1 (1152)
I1114 09:23:20.184474 31685 net.cpp:165] Memory required for data: 2259810944
I1114 09:23:20.184481 31685 layer_factory.hpp:77] Creating layer inception_4a_1x1_down/relu
I1114 09:23:20.184489 31685 net.cpp:100] Creating Layer inception_4a_1x1_down/relu
I1114 09:23:20.184492 31685 net.cpp:434] inception_4a_1x1_down/relu <- inception_4a_1x1_down
I1114 09:23:20.184500 31685 net.cpp:395] inception_4a_1x1_down/relu -> inception_4a_1x1_down (in-place)
I1114 09:23:20.185151 31685 net.cpp:150] Setting up inception_4a_1x1_down/relu
I1114 09:23:20.185165 31685 net.cpp:157] Top shape: 32 36 1 1 (1152)
I1114 09:23:20.185169 31685 net.cpp:165] Memory required for data: 2259815552
I1114 09:23:20.185174 31685 layer_factory.hpp:77] Creating layer inception_4a_1x1_up
I1114 09:23:20.185185 31685 net.cpp:100] Creating Layer inception_4a_1x1_up
I1114 09:23:20.185189 31685 net.cpp:434] inception_4a_1x1_up <- inception_4a_1x1_down
I1114 09:23:20.185199 31685 net.cpp:408] inception_4a_1x1_up -> inception_4a_1x1_up
I1114 09:23:20.185611 31685 net.cpp:150] Setting up inception_4a_1x1_up
I1114 09:23:20.185621 31685 net.cpp:157] Top shape: 32 576 1 1 (18432)
I1114 09:23:20.185623 31685 net.cpp:165] Memory required for data: 2259889280
I1114 09:23:20.185631 31685 layer_factory.hpp:77] Creating layer inception_4a_prob
I1114 09:23:20.185642 31685 net.cpp:100] Creating Layer inception_4a_prob
I1114 09:23:20.185647 31685 net.cpp:434] inception_4a_prob <- inception_4a_1x1_up
I1114 09:23:20.185652 31685 net.cpp:395] inception_4a_prob -> inception_4a_1x1_up (in-place)
I1114 09:23:20.186122 31685 net.cpp:150] Setting up inception_4a_prob
I1114 09:23:20.186134 31685 net.cpp:157] Top shape: 32 576 1 1 (18432)
I1114 09:23:20.186141 31685 net.cpp:165] Memory required for data: 2259963008
I1114 09:23:20.186144 31685 layer_factory.hpp:77] Creating layer inception_4a_prob_reshape
I1114 09:23:20.186154 31685 net.cpp:100] Creating Layer inception_4a_prob_reshape
I1114 09:23:20.186159 31685 net.cpp:434] inception_4a_prob_reshape <- inception_4a_1x1_up
I1114 09:23:20.186165 31685 net.cpp:408] inception_4a_prob_reshape -> inception_4a_prob_reshape
I1114 09:23:20.186210 31685 net.cpp:150] Setting up inception_4a_prob_reshape
I1114 09:23:20.186216 31685 net.cpp:157] Top shape: 32 576 (18432)
I1114 09:23:20.186220 31685 net.cpp:165] Memory required for data: 2260036736
I1114 09:23:20.186224 31685 layer_factory.hpp:77] Creating layer inception_4a_scale
I1114 09:23:20.186233 31685 net.cpp:100] Creating Layer inception_4a_scale
I1114 09:23:20.186236 31685 net.cpp:434] inception_4a_scale <- inception_4a/concat_inception_4a/concat_0_split_1
I1114 09:23:20.186241 31685 net.cpp:434] inception_4a_scale <- inception_4a_prob_reshape
I1114 09:23:20.186249 31685 net.cpp:408] inception_4a_scale -> inception_4a/output
I1114 09:23:20.186349 31685 net.cpp:150] Setting up inception_4a_scale
I1114 09:23:20.186363 31685 net.cpp:157] Top shape: 32 576 14 14 (3612672)
I1114 09:23:20.186367 31685 net.cpp:165] Memory required for data: 2274487424
I1114 09:23:20.186370 31685 layer_factory.hpp:77] Creating layer inception_4a/output_inception_4a_scale_0_split
I1114 09:23:20.186380 31685 net.cpp:100] Creating Layer inception_4a/output_inception_4a_scale_0_split
I1114 09:23:20.186384 31685 net.cpp:434] inception_4a/output_inception_4a_scale_0_split <- inception_4a/output
I1114 09:23:20.186393 31685 net.cpp:408] inception_4a/output_inception_4a_scale_0_split -> inception_4a/output_inception_4a_scale_0_split_0
I1114 09:23:20.186399 31685 net.cpp:408] inception_4a/output_inception_4a_scale_0_split -> inception_4a/output_inception_4a_scale_0_split_1
I1114 09:23:20.186406 31685 net.cpp:408] inception_4a/output_inception_4a_scale_0_split -> inception_4a/output_inception_4a_scale_0_split_2
I1114 09:23:20.186412 31685 net.cpp:408] inception_4a/output_inception_4a_scale_0_split -> inception_4a/output_inception_4a_scale_0_split_3
I1114 09:23:20.186542 31685 net.cpp:150] Setting up inception_4a/output_inception_4a_scale_0_split
I1114 09:23:20.186553 31685 net.cpp:157] Top shape: 32 576 14 14 (3612672)
I1114 09:23:20.186558 31685 net.cpp:157] Top shape: 32 576 14 14 (3612672)
I1114 09:23:20.186564 31685 net.cpp:157] Top shape: 32 576 14 14 (3612672)
I1114 09:23:20.186570 31685 net.cpp:157] Top shape: 32 576 14 14 (3612672)
I1114 09:23:20.186574 31685 net.cpp:165] Memory required for data: 2332290176
I1114 09:23:20.186578 31685 layer_factory.hpp:77] Creating layer inception_4b/1x1
I1114 09:23:20.186590 31685 net.cpp:100] Creating Layer inception_4b/1x1
I1114 09:23:20.186595 31685 net.cpp:434] inception_4b/1x1 <- inception_4a/output_inception_4a_scale_0_split_0
I1114 09:23:20.186602 31685 net.cpp:408] inception_4b/1x1 -> inception_4b/1x1
I1114 09:23:20.187125 31685 net.cpp:150] Setting up inception_4b/1x1
I1114 09:23:20.187134 31685 net.cpp:157] Top shape: 32 192 14 14 (1204224)
I1114 09:23:20.187139 31685 net.cpp:165] Memory required for data: 2337107072
I1114 09:23:20.187145 31685 layer_factory.hpp:77] Creating layer inception_4b/1x1/bn
I1114 09:23:20.187155 31685 net.cpp:100] Creating Layer inception_4b/1x1/bn
I1114 09:23:20.187160 31685 net.cpp:434] inception_4b/1x1/bn <- inception_4b/1x1
I1114 09:23:20.187168 31685 net.cpp:395] inception_4b/1x1/bn -> inception_4b/1x1 (in-place)
I1114 09:23:20.187491 31685 net.cpp:150] Setting up inception_4b/1x1/bn
I1114 09:23:20.187500 31685 net.cpp:157] Top shape: 32 192 14 14 (1204224)
I1114 09:23:20.187505 31685 net.cpp:165] Memory required for data: 2341923968
I1114 09:23:20.187513 31685 layer_factory.hpp:77] Creating layer inception_4b/1x1/bn/scale
I1114 09:23:20.187522 31685 net.cpp:100] Creating Layer inception_4b/1x1/bn/scale
I1114 09:23:20.187527 31685 net.cpp:434] inception_4b/1x1/bn/scale <- inception_4b/1x1
I1114 09:23:20.187536 31685 net.cpp:395] inception_4b/1x1/bn/scale -> inception_4b/1x1 (in-place)
I1114 09:23:20.187598 31685 layer_factory.hpp:77] Creating layer inception_4b/1x1/bn/scale
I1114 09:23:20.187780 31685 net.cpp:150] Setting up inception_4b/1x1/bn/scale
I1114 09:23:20.187789 31685 net.cpp:157] Top shape: 32 192 14 14 (1204224)
I1114 09:23:20.187793 31685 net.cpp:165] Memory required for data: 2346740864
I1114 09:23:20.187800 31685 layer_factory.hpp:77] Creating layer inception_4b/relu_1x1
I1114 09:23:20.187808 31685 net.cpp:100] Creating Layer inception_4b/relu_1x1
I1114 09:23:20.187813 31685 net.cpp:434] inception_4b/relu_1x1 <- inception_4b/1x1
I1114 09:23:20.187819 31685 net.cpp:395] inception_4b/relu_1x1 -> inception_4b/1x1 (in-place)
I1114 09:23:20.188567 31685 net.cpp:150] Setting up inception_4b/relu_1x1
I1114 09:23:20.188582 31685 net.cpp:157] Top shape: 32 192 14 14 (1204224)
I1114 09:23:20.188602 31685 net.cpp:165] Memory required for data: 2351557760
I1114 09:23:20.188607 31685 layer_factory.hpp:77] Creating layer inception_4b/3x3_reduce
I1114 09:23:20.188619 31685 net.cpp:100] Creating Layer inception_4b/3x3_reduce
I1114 09:23:20.188629 31685 net.cpp:434] inception_4b/3x3_reduce <- inception_4a/output_inception_4a_scale_0_split_1
I1114 09:23:20.188637 31685 net.cpp:408] inception_4b/3x3_reduce -> inception_4b/3x3_reduce
I1114 09:23:20.190410 31685 net.cpp:150] Setting up inception_4b/3x3_reduce
I1114 09:23:20.190428 31685 net.cpp:157] Top shape: 32 96 14 14 (602112)
I1114 09:23:20.190431 31685 net.cpp:165] Memory required for data: 2353966208
I1114 09:23:20.190438 31685 layer_factory.hpp:77] Creating layer inception_4b/3x3_reduce/bn
I1114 09:23:20.190449 31685 net.cpp:100] Creating Layer inception_4b/3x3_reduce/bn
I1114 09:23:20.190461 31685 net.cpp:434] inception_4b/3x3_reduce/bn <- inception_4b/3x3_reduce
I1114 09:23:20.190490 31685 net.cpp:395] inception_4b/3x3_reduce/bn -> inception_4b/3x3_reduce (in-place)
I1114 09:23:20.190963 31685 net.cpp:150] Setting up inception_4b/3x3_reduce/bn
I1114 09:23:20.190974 31685 net.cpp:157] Top shape: 32 96 14 14 (602112)
I1114 09:23:20.190979 31685 net.cpp:165] Memory required for data: 2356374656
I1114 09:23:20.190987 31685 layer_factory.hpp:77] Creating layer inception_4b/3x3_reduce/bn/scale
I1114 09:23:20.190995 31685 net.cpp:100] Creating Layer inception_4b/3x3_reduce/bn/scale
I1114 09:23:20.191000 31685 net.cpp:434] inception_4b/3x3_reduce/bn/scale <- inception_4b/3x3_reduce
I1114 09:23:20.191009 31685 net.cpp:395] inception_4b/3x3_reduce/bn/scale -> inception_4b/3x3_reduce (in-place)
I1114 09:23:20.191069 31685 layer_factory.hpp:77] Creating layer inception_4b/3x3_reduce/bn/scale
I1114 09:23:20.191252 31685 net.cpp:150] Setting up inception_4b/3x3_reduce/bn/scale
I1114 09:23:20.191262 31685 net.cpp:157] Top shape: 32 96 14 14 (602112)
I1114 09:23:20.191265 31685 net.cpp:165] Memory required for data: 2358783104
I1114 09:23:20.191272 31685 layer_factory.hpp:77] Creating layer inception_4b/relu_3x3_reduce
I1114 09:23:20.191295 31685 net.cpp:100] Creating Layer inception_4b/relu_3x3_reduce
I1114 09:23:20.191299 31685 net.cpp:434] inception_4b/relu_3x3_reduce <- inception_4b/3x3_reduce
I1114 09:23:20.191305 31685 net.cpp:395] inception_4b/relu_3x3_reduce -> inception_4b/3x3_reduce (in-place)
I1114 09:23:20.194568 31685 net.cpp:150] Setting up inception_4b/relu_3x3_reduce
I1114 09:23:20.194602 31685 net.cpp:157] Top shape: 32 96 14 14 (602112)
I1114 09:23:20.194607 31685 net.cpp:165] Memory required for data: 2361191552
I1114 09:23:20.194615 31685 layer_factory.hpp:77] Creating layer inception_4b/3x3
I1114 09:23:20.194633 31685 net.cpp:100] Creating Layer inception_4b/3x3
I1114 09:23:20.194638 31685 net.cpp:434] inception_4b/3x3 <- inception_4b/3x3_reduce
I1114 09:23:20.194650 31685 net.cpp:408] inception_4b/3x3 -> inception_4b/3x3
I1114 09:23:20.195185 31685 net.cpp:150] Setting up inception_4b/3x3
I1114 09:23:20.195195 31685 net.cpp:157] Top shape: 32 128 14 14 (802816)
I1114 09:23:20.195199 31685 net.cpp:165] Memory required for data: 2364402816
I1114 09:23:20.195207 31685 layer_factory.hpp:77] Creating layer inception_4b/3x3/bn
I1114 09:23:20.195219 31685 net.cpp:100] Creating Layer inception_4b/3x3/bn
I1114 09:23:20.195224 31685 net.cpp:434] inception_4b/3x3/bn <- inception_4b/3x3
I1114 09:23:20.195228 31685 net.cpp:395] inception_4b/3x3/bn -> inception_4b/3x3 (in-place)
I1114 09:23:20.195540 31685 net.cpp:150] Setting up inception_4b/3x3/bn
I1114 09:23:20.195549 31685 net.cpp:157] Top shape: 32 128 14 14 (802816)
I1114 09:23:20.195554 31685 net.cpp:165] Memory required for data: 2367614080
I1114 09:23:20.195560 31685 layer_factory.hpp:77] Creating layer inception_4b/3x3/bn/scale
I1114 09:23:20.195572 31685 net.cpp:100] Creating Layer inception_4b/3x3/bn/scale
I1114 09:23:20.195577 31685 net.cpp:434] inception_4b/3x3/bn/scale <- inception_4b/3x3
I1114 09:23:20.195588 31685 net.cpp:395] inception_4b/3x3/bn/scale -> inception_4b/3x3 (in-place)
I1114 09:23:20.195655 31685 layer_factory.hpp:77] Creating layer inception_4b/3x3/bn/scale
I1114 09:23:20.195843 31685 net.cpp:150] Setting up inception_4b/3x3/bn/scale
I1114 09:23:20.195853 31685 net.cpp:157] Top shape: 32 128 14 14 (802816)
I1114 09:23:20.195865 31685 net.cpp:165] Memory required for data: 2370825344
I1114 09:23:20.195873 31685 layer_factory.hpp:77] Creating layer inception_4b/relu_3x3
I1114 09:23:20.195880 31685 net.cpp:100] Creating Layer inception_4b/relu_3x3
I1114 09:23:20.195885 31685 net.cpp:434] inception_4b/relu_3x3 <- inception_4b/3x3
I1114 09:23:20.195890 31685 net.cpp:395] inception_4b/relu_3x3 -> inception_4b/3x3 (in-place)
I1114 09:23:20.196599 31685 net.cpp:150] Setting up inception_4b/relu_3x3
I1114 09:23:20.196614 31685 net.cpp:157] Top shape: 32 128 14 14 (802816)
I1114 09:23:20.196617 31685 net.cpp:165] Memory required for data: 2374036608
I1114 09:23:20.196622 31685 layer_factory.hpp:77] Creating layer inception_4b/double3x3_reduce
I1114 09:23:20.196633 31685 net.cpp:100] Creating Layer inception_4b/double3x3_reduce
I1114 09:23:20.196638 31685 net.cpp:434] inception_4b/double3x3_reduce <- inception_4a/output_inception_4a_scale_0_split_2
I1114 09:23:20.196646 31685 net.cpp:408] inception_4b/double3x3_reduce -> inception_4b/double3x3_reduce
I1114 09:23:20.197041 31685 net.cpp:150] Setting up inception_4b/double3x3_reduce
I1114 09:23:20.197049 31685 net.cpp:157] Top shape: 32 96 14 14 (602112)
I1114 09:23:20.197053 31685 net.cpp:165] Memory required for data: 2376445056
I1114 09:23:20.197059 31685 layer_factory.hpp:77] Creating layer inception_4b/double3x3_reduce/bn
I1114 09:23:20.197074 31685 net.cpp:100] Creating Layer inception_4b/double3x3_reduce/bn
I1114 09:23:20.197079 31685 net.cpp:434] inception_4b/double3x3_reduce/bn <- inception_4b/double3x3_reduce
I1114 09:23:20.197084 31685 net.cpp:395] inception_4b/double3x3_reduce/bn -> inception_4b/double3x3_reduce (in-place)
I1114 09:23:20.197422 31685 net.cpp:150] Setting up inception_4b/double3x3_reduce/bn
I1114 09:23:20.197429 31685 net.cpp:157] Top shape: 32 96 14 14 (602112)
I1114 09:23:20.197433 31685 net.cpp:165] Memory required for data: 2378853504
I1114 09:23:20.197443 31685 layer_factory.hpp:77] Creating layer inception_4b/double3x3_reduce/bn/scale
I1114 09:23:20.197453 31685 net.cpp:100] Creating Layer inception_4b/double3x3_reduce/bn/scale
I1114 09:23:20.197456 31685 net.cpp:434] inception_4b/double3x3_reduce/bn/scale <- inception_4b/double3x3_reduce
I1114 09:23:20.197463 31685 net.cpp:395] inception_4b/double3x3_reduce/bn/scale -> inception_4b/double3x3_reduce (in-place)
I1114 09:23:20.197527 31685 layer_factory.hpp:77] Creating layer inception_4b/double3x3_reduce/bn/scale
I1114 09:23:20.197729 31685 net.cpp:150] Setting up inception_4b/double3x3_reduce/bn/scale
I1114 09:23:20.197738 31685 net.cpp:157] Top shape: 32 96 14 14 (602112)
I1114 09:23:20.197741 31685 net.cpp:165] Memory required for data: 2381261952
I1114 09:23:20.197748 31685 layer_factory.hpp:77] Creating layer inception_4b/relu_double3x3_reduce
I1114 09:23:20.197757 31685 net.cpp:100] Creating Layer inception_4b/relu_double3x3_reduce
I1114 09:23:20.197762 31685 net.cpp:434] inception_4b/relu_double3x3_reduce <- inception_4b/double3x3_reduce
I1114 09:23:20.197767 31685 net.cpp:395] inception_4b/relu_double3x3_reduce -> inception_4b/double3x3_reduce (in-place)
I1114 09:23:20.198184 31685 net.cpp:150] Setting up inception_4b/relu_double3x3_reduce
I1114 09:23:20.198196 31685 net.cpp:157] Top shape: 32 96 14 14 (602112)
I1114 09:23:20.198200 31685 net.cpp:165] Memory required for data: 2383670400
I1114 09:23:20.198204 31685 layer_factory.hpp:77] Creating layer inception_4b/double3x3a
I1114 09:23:20.198212 31685 net.cpp:100] Creating Layer inception_4b/double3x3a
I1114 09:23:20.198217 31685 net.cpp:434] inception_4b/double3x3a <- inception_4b/double3x3_reduce
I1114 09:23:20.198225 31685 net.cpp:408] inception_4b/double3x3a -> inception_4b/double3x3a
I1114 09:23:20.198729 31685 net.cpp:150] Setting up inception_4b/double3x3a
I1114 09:23:20.198741 31685 net.cpp:157] Top shape: 32 128 14 14 (802816)
I1114 09:23:20.198746 31685 net.cpp:165] Memory required for data: 2386881664
I1114 09:23:20.198753 31685 layer_factory.hpp:77] Creating layer inception_4b/double3x3a/bn
I1114 09:23:20.198761 31685 net.cpp:100] Creating Layer inception_4b/double3x3a/bn
I1114 09:23:20.198783 31685 net.cpp:434] inception_4b/double3x3a/bn <- inception_4b/double3x3a
I1114 09:23:20.198798 31685 net.cpp:395] inception_4b/double3x3a/bn -> inception_4b/double3x3a (in-place)
I1114 09:23:20.199147 31685 net.cpp:150] Setting up inception_4b/double3x3a/bn
I1114 09:23:20.199156 31685 net.cpp:157] Top shape: 32 128 14 14 (802816)
I1114 09:23:20.199159 31685 net.cpp:165] Memory required for data: 2390092928
I1114 09:23:20.199167 31685 layer_factory.hpp:77] Creating layer inception_4b/double3x3a/bn/scale
I1114 09:23:20.199174 31685 net.cpp:100] Creating Layer inception_4b/double3x3a/bn/scale
I1114 09:23:20.199180 31685 net.cpp:434] inception_4b/double3x3a/bn/scale <- inception_4b/double3x3a
I1114 09:23:20.199187 31685 net.cpp:395] inception_4b/double3x3a/bn/scale -> inception_4b/double3x3a (in-place)
I1114 09:23:20.199254 31685 layer_factory.hpp:77] Creating layer inception_4b/double3x3a/bn/scale
I1114 09:23:20.199416 31685 net.cpp:150] Setting up inception_4b/double3x3a/bn/scale
I1114 09:23:20.199425 31685 net.cpp:157] Top shape: 32 128 14 14 (802816)
I1114 09:23:20.199429 31685 net.cpp:165] Memory required for data: 2393304192
I1114 09:23:20.199436 31685 layer_factory.hpp:77] Creating layer inception_4b/relu_double3x3a
I1114 09:23:20.199442 31685 net.cpp:100] Creating Layer inception_4b/relu_double3x3a
I1114 09:23:20.199446 31685 net.cpp:434] inception_4b/relu_double3x3a <- inception_4b/double3x3a
I1114 09:23:20.199453 31685 net.cpp:395] inception_4b/relu_double3x3a -> inception_4b/double3x3a (in-place)
I1114 09:23:20.200096 31685 net.cpp:150] Setting up inception_4b/relu_double3x3a
I1114 09:23:20.200111 31685 net.cpp:157] Top shape: 32 128 14 14 (802816)
I1114 09:23:20.200115 31685 net.cpp:165] Memory required for data: 2396515456
I1114 09:23:20.200120 31685 layer_factory.hpp:77] Creating layer inception_4b/double3x3b
I1114 09:23:20.200131 31685 net.cpp:100] Creating Layer inception_4b/double3x3b
I1114 09:23:20.200135 31685 net.cpp:434] inception_4b/double3x3b <- inception_4b/double3x3a
I1114 09:23:20.200145 31685 net.cpp:408] inception_4b/double3x3b -> inception_4b/double3x3b
I1114 09:23:20.200613 31685 net.cpp:150] Setting up inception_4b/double3x3b
I1114 09:23:20.200624 31685 net.cpp:157] Top shape: 32 128 14 14 (802816)
I1114 09:23:20.200628 31685 net.cpp:165] Memory required for data: 2399726720
I1114 09:23:20.200634 31685 layer_factory.hpp:77] Creating layer inception_4b/double3x3b/bn
I1114 09:23:20.200641 31685 net.cpp:100] Creating Layer inception_4b/double3x3b/bn
I1114 09:23:20.200645 31685 net.cpp:434] inception_4b/double3x3b/bn <- inception_4b/double3x3b
I1114 09:23:20.200652 31685 net.cpp:395] inception_4b/double3x3b/bn -> inception_4b/double3x3b (in-place)
I1114 09:23:20.200970 31685 net.cpp:150] Setting up inception_4b/double3x3b/bn
I1114 09:23:20.200979 31685 net.cpp:157] Top shape: 32 128 14 14 (802816)
I1114 09:23:20.200984 31685 net.cpp:165] Memory required for data: 2402937984
…
I1114 09:23:20.654103 31685 net.cpp:100] Creating Layer inception_5a/relu_1x1
I1114 09:23:20.654112 31685 net.cpp:434] inception_5a/relu_1x1 <- inception_5a/1x1
I1114 09:23:20.654119 31685 net.cpp:395] inception_5a/relu_1x1 -> inception_5a/1x1 (in-place)
I1114 09:23:20.655009 31685 net.cpp:150] Setting up inception_5a/relu_1x1
I1114 09:23:20.655028 31685 net.cpp:157] Top shape: 32 352 7 7 (551936)
I1114 09:23:20.655033 31685 net.cpp:165] Memory required for data: 3158888448
I1114 09:23:20.655038 31685 layer_factory.hpp:77] Creating layer inception_5a/3x3_reduce
I1114 09:23:20.655047 31685 net.cpp:100] Creating Layer inception_5a/3x3_reduce
I1114 09:23:20.655053 31685 net.cpp:434] inception_5a/3x3_reduce <- inception_4e/output_inception_4e_scale_0_split_1
I1114 09:23:20.655062 31685 net.cpp:408] inception_5a/3x3_reduce -> inception_5a/3x3_reduce
I1114 09:23:20.655771 31685 net.cpp:150] Setting up inception_5a/3x3_reduce
I1114 09:23:20.655788 31685 net.cpp:157] Top shape: 32 192 7 7 (301056)
I1114 09:23:20.655797 31685 net.cpp:165] Memory required for data: 3160092672
I1114 09:23:20.655807 31685 layer_factory.hpp:77] Creating layer inception_5a/3x3_reduce/bn
I1114 09:23:20.655822 31685 net.cpp:100] Creating Layer inception_5a/3x3_reduce/bn
I1114 09:23:20.655830 31685 net.cpp:434] inception_5a/3x3_reduce/bn <- inception_5a/3x3_reduce
I1114 09:23:20.655840 31685 net.cpp:395] inception_5a/3x3_reduce/bn -> inception_5a/3x3_reduce (in-place)
I1114 09:23:20.656297 31685 net.cpp:150] Setting up inception_5a/3x3_reduce/bn
I1114 09:23:20.656308 31685 net.cpp:157] Top shape: 32 192 7 7 (301056)
I1114 09:23:20.656312 31685 net.cpp:165] Memory required for data: 3161296896
I1114 09:23:20.656322 31685 layer_factory.hpp:77] Creating layer inception_5a/3x3_reduce/bn/scale
I1114 09:23:20.656332 31685 net.cpp:100] Creating Layer inception_5a/3x3_reduce/bn/scale
I1114 09:23:20.656337 31685 net.cpp:434] inception_5a/3x3_reduce/bn/scale <- inception_5a/3x3_reduce
I1114 09:23:20.656344 31685 net.cpp:395] inception_5a/3x3_reduce/bn/scale -> inception_5a/3x3_reduce (in-place)
I1114 09:23:20.656419 31685 layer_factory.hpp:77] Creating layer inception_5a/3x3_reduce/bn/scale
I1114 09:23:20.656658 31685 net.cpp:150] Setting up inception_5a/3x3_reduce/bn/scale
I1114 09:23:20.656668 31685 net.cpp:157] Top shape: 32 192 7 7 (301056)
I1114 09:23:20.656672 31685 net.cpp:165] Memory required for data: 3162501120
I1114 09:23:20.656680 31685 layer_factory.hpp:77] Creating layer inception_5a/relu_3x3_reduce
I1114 09:23:20.656687 31685 net.cpp:100] Creating Layer inception_5a/relu_3x3_reduce
I1114 09:23:20.656692 31685 net.cpp:434] inception_5a/relu_3x3_reduce <- inception_5a/3x3_reduce
I1114 09:23:20.656697 31685 net.cpp:395] inception_5a/relu_3x3_reduce -> inception_5a/3x3_reduce (in-place)
I1114 09:23:20.657250 31685 net.cpp:150] Setting up inception_5a/relu_3x3_reduce
I1114 09:23:20.657264 31685 net.cpp:157] Top shape: 32 192 7 7 (301056)
I1114 09:23:20.657269 31685 net.cpp:165] Memory required for data: 3163705344
I1114 09:23:20.657274 31685 layer_factory.hpp:77] Creating layer inception_5a/3x3
I1114 09:23:20.657282 31685 net.cpp:100] Creating Layer inception_5a/3x3
I1114 09:23:20.657287 31685 net.cpp:434] inception_5a/3x3 <- inception_5a/3x3_reduce
I1114 09:23:20.657295 31685 net.cpp:408] inception_5a/3x3 -> inception_5a/3x3
I1114 09:23:20.660558 31685 net.cpp:150] Setting up inception_5a/3x3
I1114 09:23:20.660589 31685 net.cpp:157] Top shape: 32 320 7 7 (501760)
I1114 09:23:20.660594 31685 net.cpp:165] Memory required for data: 3165712384
I1114 09:23:20.660604 31685 layer_factory.hpp:77] Creating layer inception_5a/3x3/bn
I1114 09:23:20.660614 31685 net.cpp:100] Creating Layer inception_5a/3x3/bn
I1114 09:23:20.660620 31685 net.cpp:434] inception_5a/3x3/bn <- inception_5a/3x3
I1114 09:23:20.660630 31685 net.cpp:395] inception_5a/3x3/bn -> inception_5a/3x3 (in-place)
I1114 09:23:20.661062 31685 net.cpp:150] Setting up inception_5a/3x3/bn
I1114 09:23:20.661073 31685 net.cpp:157] Top shape: 32 320 7 7 (501760)
I1114 09:23:20.661089 31685 net.cpp:165] Memory required for data: 3167719424
I1114 09:23:20.661098 31685 layer_factory.hpp:77] Creating layer inception_5a/3x3/bn/scale
I1114 09:23:20.661109 31685 net.cpp:100] Creating Layer inception_5a/3x3/bn/scale
I1114 09:23:20.661114 31685 net.cpp:434] inception_5a/3x3/bn/scale <- inception_5a/3x3
I1114 09:23:20.661120 31685 net.cpp:395] inception_5a/3x3/bn/scale -> inception_5a/3x3 (in-place)
I1114 09:23:20.661221 31685 layer_factory.hpp:77] Creating layer inception_5a/3x3/bn/scale
I1114 09:23:20.661442 31685 net.cpp:150] Setting up inception_5a/3x3/bn/scale
I1114 09:23:20.661451 31685 net.cpp:157] Top shape: 32 320 7 7 (501760)
I1114 09:23:20.661455 31685 net.cpp:165] Memory required for data: 3169726464
I1114 09:23:20.661463 31685 layer_factory.hpp:77] Creating layer inception_5a/relu_3x3
I1114 09:23:20.661471 31685 net.cpp:100] Creating Layer inception_5a/relu_3x3
I1114 09:23:20.661475 31685 net.cpp:434] inception_5a/relu_3x3 <- inception_5a/3x3
I1114 09:23:20.661484 31685 net.cpp:395] inception_5a/relu_3x3 -> inception_5a/3x3 (in-place)
I1114 09:23:20.662416 31685 net.cpp:150] Setting up inception_5a/relu_3x3
I1114 09:23:20.662436 31685 net.cpp:157] Top shape: 32 320 7 7 (501760)
I1114 09:23:20.662441 31685 net.cpp:165] Memory required for data: 3171733504
I1114 09:23:20.662446 31685 layer_factory.hpp:77] Creating layer inception_5a/double3x3_reduce
I1114 09:23:20.662492 31685 net.cpp:100] Creating Layer inception_5a/double3x3_reduce
I1114 09:23:20.662503 31685 net.cpp:434] inception_5a/double3x3_reduce <- inception_4e/output_inception_4e_scale_0_split_2
I1114 09:23:20.662511 31685 net.cpp:408] inception_5a/double3x3_reduce -> inception_5a/double3x3_reduce
I1114 09:23:20.664633 31685 net.cpp:150] Setting up inception_5a/double3x3_reduce
I1114 09:23:20.664652 31685 net.cpp:157] Top shape: 32 160 7 7 (250880)
I1114 09:23:20.664656 31685 net.cpp:165] Memory required for data: 3172737024
I1114 09:23:20.664664 31685 layer_factory.hpp:77] Creating layer inception_5a/double3x3_reduce/bn
I1114 09:23:20.664677 31685 net.cpp:100] Creating Layer inception_5a/double3x3_reduce/bn
I1114 09:23:20.664683 31685 net.cpp:434] inception_5a/double3x3_reduce/bn <- inception_5a/double3x3_reduce
I1114 09:23:20.664696 31685 net.cpp:395] inception_5a/double3x3_reduce/bn -> inception_5a/double3x3_reduce (in-place)
I1114 09:23:20.665082 31685 net.cpp:150] Setting up inception_5a/double3x3_reduce/bn
I1114 09:23:20.665091 31685 net.cpp:157] Top shape: 32 160 7 7 (250880)
I1114 09:23:20.665096 31685 net.cpp:165] Memory required for data: 3173740544
I1114 09:23:20.665103 31685 layer_factory.hpp:77] Creating layer inception_5a/double3x3_reduce/bn/scale
I1114 09:23:20.665112 31685 net.cpp:100] Creating Layer inception_5a/double3x3_reduce/bn/scale
I1114 09:23:20.665117 31685 net.cpp:434] inception_5a/double3x3_reduce/bn/scale <- inception_5a/double3x3_reduce
I1114 09:23:20.665144 31685 net.cpp:395] inception_5a/double3x3_reduce/bn/scale -> inception_5a/double3x3_reduce (in-place)
I1114 09:23:20.665217 31685 layer_factory.hpp:77] Creating layer inception_5a/double3x3_reduce/bn/scale
I1114 09:23:20.665424 31685 net.cpp:150] Setting up inception_5a/double3x3_reduce/bn/scale
I1114 09:23:20.665434 31685 net.cpp:157] Top shape: 32 160 7 7 (250880)
I1114 09:23:20.665437 31685 net.cpp:165] Memory required for data: 3174744064
I1114 09:23:20.665446 31685 layer_factory.hpp:77] Creating layer inception_5a/relu_double3x3_reduce
I1114 09:23:20.665457 31685 net.cpp:100] Creating Layer inception_5a/relu_double3x3_reduce
I1114 09:23:20.665467 31685 net.cpp:434] inception_5a/relu_double3x3_reduce <- inception_5a/double3x3_reduce
I1114 09:23:20.665475 31685 net.cpp:395] inception_5a/relu_double3x3_reduce -> inception_5a/double3x3_reduce (in-place)
I1114 09:23:20.666365 31685 net.cpp:150] Setting up inception_5a/relu_double3x3_reduce
I1114 09:23:20.666384 31685 net.cpp:157] Top shape: 32 160 7 7 (250880)
I1114 09:23:20.666390 31685 net.cpp:165] Memory required for data: 3175747584
I1114 09:23:20.666394 31685 layer_factory.hpp:77] Creating layer inception_5a/double3x3a
I1114 09:23:20.666416 31685 net.cpp:100] Creating Layer inception_5a/double3x3a
I1114 09:23:20.666422 31685 net.cpp:434] inception_5a/double3x3a <- inception_5a/double3x3_reduce
I1114 09:23:20.666432 31685 net.cpp:408] inception_5a/double3x3a -> inception_5a/double3x3a
I1114 09:23:20.667243 31685 net.cpp:150] Setting up inception_5a/double3x3a
I1114 09:23:20.667255 31685 net.cpp:157] Top shape: 32 224 7 7 (351232)
I1114 09:23:20.667259 31685 net.cpp:165] Memory required for data: 3177152512
I1114 09:23:20.667266 31685 layer_factory.hpp:77] Creating layer inception_5a/double3x3a/bn
I1114 09:23:20.667274 31685 net.cpp:100] Creating Layer inception_5a/double3x3a/bn
I1114 09:23:20.667281 31685 net.cpp:434] inception_5a/double3x3a/bn <- inception_5a/double3x3a
I1114 09:23:20.667287 31685 net.cpp:395] inception_5a/double3x3a/bn -> inception_5a/double3x3a (in-place)
I1114 09:23:20.667812 31685 net.cpp:150] Setting up inception_5a/double3x3a/bn
I1114 09:23:20.667829 31685 net.cpp:157] Top shape: 32 224 7 7 (351232)
I1114 09:23:20.667835 31685 net.cpp:165] Memory required for data: 3178557440
I1114 09:23:20.667850 31685 layer_factory.hpp:77] Creating layer inception_5a/double3x3a/bn/scale
I1114 09:23:20.667863 31685 net.cpp:100] Creating Layer inception_5a/double3x3a/bn/scale
I1114 09:23:20.667871 31685 net.cpp:434] inception_5a/double3x3a/bn/scale <- inception_5a/double3x3a
I1114 09:23:20.667881 31685 net.cpp:395] inception_5a/double3x3a/bn/scale -> inception_5a/double3x3a (in-place)
I1114 09:23:20.667995 31685 layer_factory.hpp:77] Creating layer inception_5a/double3x3a/bn/scale
I1114 09:23:20.668246 31685 net.cpp:150] Setting up inception_5a/double3x3a/bn/scale
I1114 09:23:20.668256 31685 net.cpp:157] Top shape: 32 224 7 7 (351232)
I1114 09:23:20.668260 31685 net.cpp:165] Memory required for data: 3179962368
I1114 09:23:20.668268 31685 layer_factory.hpp:77] Creating layer inception_5a/relu_double3x3a
I1114 09:23:20.668275 31685 net.cpp:100] Creating Layer inception_5a/relu_double3x3a
I1114 09:23:20.668280 31685 net.cpp:434] inception_5a/relu_double3x3a <- inception_5a/double3x3a
I1114 09:23:20.668301 31685 net.cpp:395] inception_5a/relu_double3x3a -> inception_5a/double3x3a (in-place)
I1114 09:23:20.669158 31685 net.cpp:150] Setting up inception_5a/relu_double3x3a
I1114 09:23:20.669174 31685 net.cpp:157] Top shape: 32 224 7 7 (351232)
I1114 09:23:20.669178 31685 net.cpp:165] Memory required for data: 3181367296
I1114 09:23:20.669183 31685 layer_factory.hpp:77] Creating layer inception_5a/double3x3b
I1114 09:23:20.669193 31685 net.cpp:100] Creating Layer inception_5a/double3x3b
I1114 09:23:20.669199 31685 net.cpp:434] inception_5a/double3x3b <- inception_5a/double3x3a
I1114 09:23:20.669224 31685 net.cpp:408] inception_5a/double3x3b -> inception_5a/double3x3b
I1114 09:23:20.671658 31685 net.cpp:150] Setting up inception_5a/double3x3b
I1114 09:23:20.671684 31685 net.cpp:157] Top shape: 32 224 7 7 (351232)
I1114 09:23:20.671691 31685 net.cpp:165] Memory required for data: 3182772224
I1114 09:23:20.671703 31685 layer_factory.hpp:77] Creating layer inception_5a/double3x3b/bn
I1114 09:23:20.671718 31685 net.cpp:100] Creating Layer inception_5a/double3x3b/bn
I1114 09:23:20.671727 31685 net.cpp:434] inception_5a/double3x3b/bn <- inception_5a/double3x3b
I1114 09:23:20.671742 31685 net.cpp:395] inception_5a/double3x3b/bn -> inception_5a/double3x3b (in-place)
I1114 09:23:20.672132 31685 net.cpp:150] Setting up inception_5a/double3x3b/bn
I1114 09:23:20.672142 31685 net.cpp:157] Top shape: 32 224 7 7 (351232)
I1114 09:23:20.672147 31685 net.cpp:165] Memory required for data: 3184177152
I1114 09:23:20.672155 31685 layer_factory.hpp:77] Creating layer inception_5a/double3x3b/bn/scale
I1114 09:23:20.672165 31685 net.cpp:100] Creating Layer inception_5a/double3x3b/bn/scale
I1114 09:23:20.672170 31685 net.cpp:434] inception_5a/double3x3b/bn/scale <- inception_5a/double3x3b
I1114 09:23:20.672178 31685 net.cpp:395] inception_5a/double3x3b/bn/scale -> inception_5a/double3x3b (in-place)
I1114 09:23:20.672253 31685 layer_factory.hpp:77] Creating layer inception_5a/double3x3b/bn/scale
I1114 09:23:20.672498 31685 net.cpp:150] Setting up inception_5a/double3x3b/bn/scale
I1114 09:23:20.672508 31685 net.cpp:157] Top shape: 32 224 7 7 (351232)
I1114 09:23:20.672513 31685 net.cpp:165] Memory required for data: 3185582080
I1114 09:23:20.672520 31685 layer_factory.hpp:77] Creating layer inception_5a/relu_double3x3b
I1114 09:23:20.672529 31685 net.cpp:100] Creating Layer inception_5a/relu_double3x3b
I1114 09:23:20.672534 31685 net.cpp:434] inception_5a/relu_double3x3b <- inception_5a/double3x3b
I1114 09:23:20.672539 31685 net.cpp:395] inception_5a/relu_double3x3b -> inception_5a/double3x3b (in-place)
I1114 09:23:20.673066 31685 net.cpp:150] Setting up inception_5a/relu_double3x3b
I1114 09:23:20.673080 31685 net.cpp:157] Top shape: 32 224 7 7 (351232)
I1114 09:23:20.673084 31685 net.cpp:165] Memory required for data: 3186987008
I1114 09:23:20.673089 31685 layer_factory.hpp:77] Creating layer inception_5a/pool
I1114 09:23:20.673099 31685 net.cpp:100] Creating Layer inception_5a/pool
I1114 09:23:20.673104 31685 net.cpp:434] inception_5a/pool <- inception_4e/output_inception_4e_scale_0_split_3
I1114 09:23:20.673111 31685 net.cpp:408] inception_5a/pool -> inception_5a/pool
I1114 09:23:20.677115 31685 net.cpp:150] Setting up inception_5a/pool
I1114 09:23:20.677150 31685 net.cpp:157] Top shape: 32 1056 7 7 (1655808)
I1114 09:23:20.677155 31685 net.cpp:165] Memory required for data: 3193610240
I1114 09:23:20.677160 31685 layer_factory.hpp:77] Creating layer inception_5a/pool_proj
I1114 09:23:20.677201 31685 net.cpp:100] Creating Layer inception_5a/pool_proj
I1114 09:23:20.677209 31685 net.cpp:434] inception_5a/pool_proj <- inception_5a/pool
I1114 09:23:20.677218 31685 net.cpp:408] inception_5a/pool_proj -> inception_5a/pool_proj
I1114 09:23:20.677796 31685 net.cpp:150] Setting up inception_5a/pool_proj
I1114 09:23:20.677808 31685 net.cpp:157] Top shape: 32 128 7 7 (200704)
I1114 09:23:20.677811 31685 net.cpp:165] Memory required for data: 3194413056
I1114 09:23:20.677821 31685 layer_factory.hpp:77] Creating layer inception_5a/pool_proj/bn
I1114 09:23:20.677832 31685 net.cpp:100] Creating Layer inception_5a/pool_proj/bn
I1114 09:23:20.677837 31685 net.cpp:434] inception_5a/pool_proj/bn <- inception_5a/pool_proj
I1114 09:23:20.677844 31685 net.cpp:395] inception_5a/pool_proj/bn -> inception_5a/pool_proj (in-place)
I1114 09:23:20.678272 31685 net.cpp:150] Setting up inception_5a/pool_proj/bn
I1114 09:23:20.678298 31685 net.cpp:157] Top shape: 32 128 7 7 (200704)
I1114 09:23:20.678303 31685 net.cpp:165] Memory required for data: 3195215872
I1114 09:23:20.678313 31685 layer_factory.hpp:77] Creating layer inception_5a/pool_proj/bn/scale
I1114 09:23:20.678324 31685 net.cpp:100] Creating Layer inception_5a/pool_proj/bn/scale
I1114 09:23:20.678330 31685 net.cpp:434] inception_5a/pool_proj/bn/scale <- inception_5a/pool_proj
I1114 09:23:20.678336 31685 net.cpp:395] inception_5a/pool_proj/bn/scale -> inception_5a/pool_proj (in-place)
I1114 09:23:20.678429 31685 layer_factory.hpp:77] Creating layer inception_5a/pool_proj/bn/scale
I1114 09:23:20.678673 31685 net.cpp:150] Setting up inception_5a/pool_proj/bn/scale
I1114 09:23:20.678684 31685 net.cpp:157] Top shape: 32 128 7 7 (200704)
I1114 09:23:20.678689 31685 net.cpp:165] Memory required for data: 3196018688
I1114 09:23:20.678697 31685 layer_factory.hpp:77] Creating layer inception_5a/relu_pool_proj
I1114 09:23:20.678706 31685 net.cpp:100] Creating Layer inception_5a/relu_pool_proj
I1114 09:23:20.678711 31685 net.cpp:434] inception_5a/relu_pool_proj <- inception_5a/pool_proj
I1114 09:23:20.678717 31685 net.cpp:395] inception_5a/relu_pool_proj -> inception_5a/pool_proj (in-place)
I1114 09:23:20.682190 31685 net.cpp:150] Setting up inception_5a/relu_pool_proj
I1114 09:23:20.682209 31685 net.cpp:157] Top shape: 32 128 7 7 (200704)
I1114 09:23:20.682214 31685 net.cpp:165] Memory required for data: 3196821504
I1114 09:23:20.682219 31685 layer_factory.hpp:77] Creating layer inception_5a/concat
I1114 09:23:20.682227 31685 net.cpp:100] Creating Layer inception_5a/concat
I1114 09:23:20.682242 31685 net.cpp:434] inception_5a/concat <- inception_5a/1x1
I1114 09:23:20.682250 31685 net.cpp:434] inception_5a/concat <- inception_5a/3x3
I1114 09:23:20.682255 31685 net.cpp:434] inception_5a/concat <- inception_5a/double3x3b
I1114 09:23:20.682258 31685 net.cpp:434] inception_5a/concat <- inception_5a/pool_proj
I1114 09:23:20.682266 31685 net.cpp:408] inception_5a/concat -> inception_5a/concat
I1114 09:23:20.682317 31685 net.cpp:150] Setting up inception_5a/concat
I1114 09:23:20.682324 31685 net.cpp:157] Top shape: 32 1024 7 7 (1605632)
I1114 09:23:20.682328 31685 net.cpp:165] Memory required for data: 3203244032
I1114 09:23:20.682332 31685 layer_factory.hpp:77] Creating layer inception_5a/concat_inception_5a/concat_0_split
I1114 09:23:20.682338 31685 net.cpp:100] Creating Layer inception_5a/concat_inception_5a/concat_0_split
I1114 09:23:20.682343 31685 net.cpp:434] inception_5a/concat_inception_5a/concat_0_split <- inception_5a/concat
I1114 09:23:20.682353 31685 net.cpp:408] inception_5a/concat_inception_5a/concat_0_split -> inception_5a/concat_inception_5a/concat_0_split_0
I1114 09:23:20.682360 31685 net.cpp:408] inception_5a/concat_inception_5a/concat_0_split -> inception_5a/concat_inception_5a/concat_0_split_1
I1114 09:23:20.682421 31685 net.cpp:150] Setting up inception_5a/concat_inception_5a/concat_0_split
I1114 09:23:20.682430 31685 net.cpp:157] Top shape: 32 1024 7 7 (1605632)
I1114 09:23:20.682435 31685 net.cpp:157] Top shape: 32 1024 7 7 (1605632)
I1114 09:23:20.682438 31685 net.cpp:165] Memory required for data: 3216089088
I1114 09:23:20.682441 31685 layer_factory.hpp:77] Creating layer inception_5a_global_pool
I1114 09:23:20.682451 31685 net.cpp:100] Creating Layer inception_5a_global_pool
I1114 09:23:20.682507 31685 net.cpp:434] inception_5a_global_pool <- inception_5a/concat_inception_5a/concat_0_split_0
I1114 09:23:20.682515 31685 net.cpp:408] inception_5a_global_pool -> inception_5a_global_pool
I1114 09:23:20.682562 31685 net.cpp:150] Setting up inception_5a_global_pool
I1114 09:23:20.682574 31685 net.cpp:157] Top shape: 32 1024 1 1 (32768)
I1114 09:23:20.682579 31685 net.cpp:165] Memory required for data: 3216220160
I1114 09:23:20.682582 31685 layer_factory.hpp:77] Creating layer inception_5a_1x1_down
I1114 09:23:20.682592 31685 net.cpp:100] Creating Layer inception_5a_1x1_down
I1114 09:23:20.682597 31685 net.cpp:434] inception_5a_1x1_down <- inception_5a_global_pool
I1114 09:23:20.682606 31685 net.cpp:408] inception_5a_1x1_down -> inception_5a_1x1_down
I1114 09:23:20.683243 31685 net.cpp:150] Setting up inception_5a_1x1_down
I1114 09:23:20.683254 31685 net.cpp:157] Top shape: 32 64 1 1 (2048)
I1114 09:23:20.683256 31685 net.cpp:165] Memory required for data: 3216228352
I1114 09:23:20.683264 31685 layer_factory.hpp:77] Creating layer inception_5a_1x1_down/relu
I1114 09:23:20.683274 31685 net.cpp:100] Creating Layer inception_5a_1x1_down/relu
I1114 09:23:20.683279 31685 net.cpp:434] inception_5a_1x1_down/relu <- inception_5a_1x1_down
I1114 09:23:20.683285 31685 net.cpp:395] inception_5a_1x1_down/relu -> inception_5a_1x1_down (in-place)
I1114 09:23:20.684185 31685 net.cpp:150] Setting up inception_5a_1x1_down/relu
I1114 09:23:20.684199 31685 net.cpp:157] Top shape: 32 64 1 1 (2048)
I1114 09:23:20.684203 31685 net.cpp:165] Memory required for data: 3216236544
I1114 09:23:20.684208 31685 layer_factory.hpp:77] Creating layer inception_5a_1x1_up
I1114 09:23:20.684218 31685 net.cpp:100] Creating Layer inception_5a_1x1_up
I1114 09:23:20.684223 31685 net.cpp:434] inception_5a_1x1_up <- inception_5a_1x1_down
I1114 09:23:20.684233 31685 net.cpp:408] inception_5a_1x1_up -> inception_5a_1x1_up
I1114 09:23:20.684748 31685 net.cpp:150] Setting up inception_5a_1x1_up
I1114 09:23:20.684759 31685 net.cpp:157] Top shape: 32 1024 1 1 (32768)
I1114 09:23:20.684762 31685 net.cpp:165] Memory required for data: 3216367616
I1114 09:23:20.684770 31685 layer_factory.hpp:77] Creating layer inception_5a_prob
I1114 09:23:20.684779 31685 net.cpp:100] Creating Layer inception_5a_prob
I1114 09:23:20.684790 31685 net.cpp:434] inception_5a_prob <- inception_5a_1x1_up
I1114 09:23:20.684796 31685 net.cpp:395] inception_5a_prob -> inception_5a_1x1_up (in-place)
I1114 09:23:20.685305 31685 net.cpp:150] Setting up inception_5a_prob
I1114 09:23:20.685317 31685 net.cpp:157] Top shape: 32 1024 1 1 (32768)
I1114 09:23:20.685322 31685 net.cpp:165] Memory required for data: 3216498688
I1114 09:23:20.685325 31685 layer_factory.hpp:77] Creating layer inception_5a_prob_reshape
I1114 09:23:20.685336 31685 net.cpp:100] Creating Layer inception_5a_prob_reshape
I1114 09:23:20.685341 31685 net.cpp:434] inception_5a_prob_reshape <- inception_5a_1x1_up
I1114 09:23:20.685349 31685 net.cpp:408] inception_5a_prob_reshape -> inception_5a_prob_reshape
I1114 09:23:20.685395 31685 net.cpp:150] Setting up inception_5a_prob_reshape
I1114 09:23:20.685402 31685 net.cpp:157] Top shape: 32 1024 (32768)
I1114 09:23:20.685405 31685 net.cpp:165] Memory required for data: 3216629760
I1114 09:23:20.685410 31685 layer_factory.hpp:77] Creating layer inception_5a_scale
I1114 09:23:20.685418 31685 net.cpp:100] Creating Layer inception_5a_scale
I1114 09:23:20.685423 31685 net.cpp:434] inception_5a_scale <- inception_5a/concat_inception_5a/concat_0_split_1
I1114 09:23:20.685428 31685 net.cpp:434] inception_5a_scale <- inception_5a_prob_reshape
I1114 09:23:20.685434 31685 net.cpp:408] inception_5a_scale -> inception_5a/output
I1114 09:23:20.685549 31685 net.cpp:150] Setting up inception_5a_scale
I1114 09:23:20.685559 31685 net.cpp:157] Top shape: 32 1024 7 7 (1605632)
I1114 09:23:20.685562 31685 net.cpp:165] Memory required for data: 3223052288
I1114 09:23:20.685566 31685 layer_factory.hpp:77] Creating layer inception_5a/output_inception_5a_scale_0_split
I1114 09:23:20.685573 31685 net.cpp:100] Creating Layer inception_5a/output_inception_5a_scale_0_split
I1114 09:23:20.685577 31685 net.cpp:434] inception_5a/output_inception_5a_scale_0_split <- inception_5a/output
I1114 09:23:20.685585 31685 net.cpp:408] inception_5a/output_inception_5a_scale_0_split -> inception_5a/output_inception_5a_scale_0_split_0
I1114 09:23:20.685593 31685 net.cpp:408] inception_5a/output_inception_5a_scale_0_split -> inception_5a/output_inception_5a_scale_0_split_1
I1114 09:23:20.685600 31685 net.cpp:408] inception_5a/output_inception_5a_scale_0_split -> inception_5a/output_inception_5a_scale_0_split_2
I1114 09:23:20.685609 31685 net.cpp:408] inception_5a/output_inception_5a_scale_0_split -> inception_5a/output_inception_5a_scale_0_split_3
I1114 09:23:20.685705 31685 net.cpp:150] Setting up inception_5a/output_inception_5a_scale_0_split
I1114 09:23:20.685712 31685 net.cpp:157] Top shape: 32 1024 7 7 (1605632)
I1114 09:23:20.685719 31685 net.cpp:157] Top shape: 32 1024 7 7 (1605632)
I1114 09:23:20.685724 31685 net.cpp:157] Top shape: 32 1024 7 7 (1605632)
I1114 09:23:20.685727 31685 net.cpp:157] Top shape: 32 1024 7 7 (1605632)
I1114 09:23:20.685731 31685 net.cpp:165] Memory required for data: 3248742400
I1114 09:23:20.685735 31685 layer_factory.hpp:77] Creating layer inception_5b/1x1
I1114 09:23:20.685744 31685 net.cpp:100] Creating Layer inception_5b/1x1
I1114 09:23:20.685747 31685 net.cpp:434] inception_5b/1x1 <- inception_5a/output_inception_5a_scale_0_split_0
I1114 09:23:20.685755 31685 net.cpp:408] inception_5b/1x1 -> inception_5b/1x1
I1114 09:23:20.687961 31685 net.cpp:150] Setting up inception_5b/1x1
I1114 09:23:20.687979 31685 net.cpp:157] Top shape: 32 352 7 7 (551936)
I1114 09:23:20.687983 31685 net.cpp:165] Memory required for data: 3250950144
I1114 09:23:20.687990 31685 layer_factory.hpp:77] Creating layer inception_5b/1x1/bn
I1114 09:23:20.688000 31685 net.cpp:100] Creating Layer inception_5b/1x1/bn
I1114 09:23:20.688005 31685 net.cpp:434] inception_5b/1x1/bn <- inception_5b/1x1
I1114 09:23:20.688011 31685 net.cpp:395] inception_5b/1x1/bn -> inception_5b/1x1 (in-place)
I1114 09:23:20.688376 31685 net.cpp:150] Setting up inception_5b/1x1/bn
I1114 09:23:20.688386 31685 net.cpp:157] Top shape: 32 352 7 7 (551936)
I1114 09:23:20.688390 31685 net.cpp:165] Memory required for data: 3253157888
I1114 09:23:20.688403 31685 layer_factory.hpp:77] Creating layer inception_5b/1x1/bn/scale
I1114 09:23:20.688413 31685 net.cpp:100] Creating Layer inception_5b/1x1/bn/scale
I1114 09:23:20.688417 31685 net.cpp:434] inception_5b/1x1/bn/scale <- inception_5b/1x1
I1114 09:23:20.688423 31685 net.cpp:395] inception_5b/1x1/bn/scale -> inception_5b/1x1 (in-place)
I1114 09:23:20.688494 31685 layer_factory.hpp:77] Creating layer inception_5b/1x1/bn/scale
I1114 09:23:20.688689 31685 net.cpp:150] Setting up inception_5b/1x1/bn/scale
I1114 09:23:20.688699 31685 net.cpp:157] Top shape: 32 352 7 7 (551936)
I1114 09:23:20.688701 31685 net.cpp:165] Memory required for data: 3255365632
I1114 09:23:20.688709 31685 layer_factory.hpp:77] Creating layer inception_5b/relu_1x1
I1114 09:23:20.688717 31685 net.cpp:100] Creating Layer inception_5b/relu_1x1
I1114 09:23:20.688721 31685 net.cpp:434] inception_5b/relu_1x1 <- inception_5b/1x1
I1114 09:23:20.688726 31685 net.cpp:395] inception_5b/relu_1x1 -> inception_5b/1x1 (in-place)
I1114 09:23:20.689399 31685 net.cpp:150] Setting up inception_5b/relu_1x1
I1114 09:23:20.689414 31685 net.cpp:157] Top shape: 32 352 7 7 (551936)
I1114 09:23:20.689417 31685 net.cpp:165] Memory required for data: 3257573376
I1114 09:23:20.689422 31685 layer_factory.hpp:77] Creating layer inception_5b/3x3_reduce
I1114 09:23:20.689432 31685 net.cpp:100] Creating Layer inception_5b/3x3_reduce
I1114 09:23:20.689437 31685 net.cpp:434] inception_5b/3x3_reduce <- inception_5a/output_inception_5a_scale_0_split_1
I1114 09:23:20.689443 31685 net.cpp:408] inception_5b/3x3_reduce -> inception_5b/3x3_reduce
I1114 09:23:20.691325 31685 net.cpp:150] Setting up inception_5b/3x3_reduce
I1114 09:23:20.691341 31685 net.cpp:157] Top shape: 32 192 7 7 (301056)
I1114 09:23:20.691346 31685 net.cpp:165] Memory required for data: 3258777600
I1114 09:23:20.691352 31685 layer_factory.hpp:77] Creating layer inception_5b/3x3_reduce/bn
I1114 09:23:20.691362 31685 net.cpp:100] Creating Layer inception_5b/3x3_reduce/bn
I1114 09:23:20.691367 31685 net.cpp:434] inception_5b/3x3_reduce/bn <- inception_5b/3x3_reduce
I1114 09:23:20.691373 31685 net.cpp:395] inception_5b/3x3_reduce/bn -> inception_5b/3x3_reduce (in-place)
I1114 09:23:20.691697 31685 net.cpp:150] Setting up inception_5b/3x3_reduce/bn
I1114 09:23:20.691705 31685 net.cpp:157] Top shape: 32 192 7 7 (301056)
I1114 09:23:20.691709 31685 net.cpp:165] Memory required for data: 3259981824
I1114 09:23:20.691716 31685 layer_factory.hpp:77] Creating layer inception_5b/3x3_reduce/bn/scale
I1114 09:23:20.691725 31685 net.cpp:100] Creating Layer inception_5b/3x3_reduce/bn/scale
I1114 09:23:20.691730 31685 net.cpp:434] inception_5b/3x3_reduce/bn/scale <- inception_5b/3x3_reduce
I1114 09:23:20.691735 31685 net.cpp:395] inception_5b/3x3_reduce/bn/scale -> inception_5b/3x3_reduce (in-place)
I1114 09:23:20.691797 31685 layer_factory.hpp:77] Creating layer inception_5b/3x3_reduce/bn/scale
I1114 09:23:20.691987 31685 net.cpp:150] Setting up inception_5b/3x3_reduce/bn/scale
I1114 09:23:20.691995 31685 net.cpp:157] Top shape: 32 192 7 7 (301056)
I1114 09:23:20.691998 31685 net.cpp:165] Memory required for data: 3261186048
I1114 09:23:20.692004 31685 layer_factory.hpp:77] Creating layer inception_5b/relu_3x3_reduce
I1114 09:23:20.692010 31685 net.cpp:100] Creating Layer inception_5b/relu_3x3_reduce
I1114 09:23:20.692014 31685 net.cpp:434] inception_5b/relu_3x3_reduce <- inception_5b/3x3_reduce
I1114 09:23:20.692021 31685 net.cpp:395] inception_5b/relu_3x3_reduce -> inception_5b/3x3_reduce (in-place)
I1114 09:23:20.692708 31685 net.cpp:150] Setting up inception_5b/relu_3x3_reduce
I1114 09:23:20.692721 31685 net.cpp:157] Top shape: 32 192 7 7 (301056)
I1114 09:23:20.692724 31685 net.cpp:165] Memory required for data: 3262390272
I1114 09:23:20.692728 31685 layer_factory.hpp:77] Creating layer inception_5b/3x3
I1114 09:23:20.692739 31685 net.cpp:100] Creating Layer inception_5b/3x3
I1114 09:23:20.692744 31685 net.cpp:434] inception_5b/3x3 <- inception_5b/3x3_reduce
I1114 09:23:20.692755 31685 net.cpp:408] inception_5b/3x3 -> inception_5b/3x3
I1114 09:23:20.694945 31685 net.cpp:150] Setting up inception_5b/3x3
I1114 09:23:20.694962 31685 net.cpp:157] Top shape: 32 320 7 7 (501760)
I1114 09:23:20.694965 31685 net.cpp:165] Memory required for data: 3264397312
I1114 09:23:20.694972 31685 layer_factory.hpp:77] Creating layer inception_5b/3x3/bn
I1114 09:23:20.694980 31685 net.cpp:100] Creating Layer inception_5b/3x3/bn
I1114 09:23:20.694985 31685 net.cpp:434] inception_5b/3x3/bn <- inception_5b/3x3
I1114 09:23:20.694993 31685 net.cpp:395] inception_5b/3x3/bn -> inception_5b/3x3 (in-place)
I1114 09:23:20.695317 31685 net.cpp:150] Setting up inception_5b/3x3/bn
I1114 09:23:20.695324 31685 net.cpp:157] Top shape: 32 320 7 7 (501760)
I1114 09:23:20.695328 31685 net.cpp:165] Memory required for data: 3266404352
I1114 09:23:20.695335 31685 layer_factory.hpp:77] Creating layer inception_5b/3x3/bn/scale
I1114 09:23:20.695343 31685 net.cpp:100] Creating Layer inception_5b/3x3/bn/scale
I1114 09:23:20.695348 31685 net.cpp:434] inception_5b/3x3/bn/scale <- inception_5b/3x3
I1114 09:23:20.695355 31685 net.cpp:395] inception_5b/3x3/bn/scale -> inception_5b/3x3 (in-place)
I1114 09:23:20.695418 31685 layer_factory.hpp:77] Creating layer inception_5b/3x3/bn/scale
I1114 09:23:20.695593 31685 net.cpp:150] Setting up inception_5b/3x3/bn/scale
I1114 09:23:20.695601 31685 net.cpp:157] Top shape: 32 320 7 7 (501760)
I1114 09:23:20.695605 31685 net.cpp:165] Memory required for data: 3268411392
I1114 09:23:20.695611 31685 layer_factory.hpp:77] Creating layer inception_5b/relu_3x3
I1114 09:23:20.695619 31685 net.cpp:100] Creating Layer inception_5b/relu_3x3
I1114 09:23:20.695624 31685 net.cpp:434] inception_5b/relu_3x3 <- inception_5b/3x3
I1114 09:23:20.695629 31685 net.cpp:395] inception_5b/relu_3x3 -> inception_5b/3x3 (in-place)
I1114 09:23:20.696252 31685 net.cpp:150] Setting up inception_5b/relu_3x3
I1114 09:23:20.696266 31685 net.cpp:157] Top shape: 32 320 7 7 (501760)
I1114 09:23:20.696269 31685 net.cpp:165] Memory required for data: 3270418432
I1114 09:23:20.696274 31685 layer_factory.hpp:77] Creating layer inception_5b/double3x3_reduce
I1114 09:23:20.696283 31685 net.cpp:100] Creating Layer inception_5b/double3x3_reduce
I1114 09:23:20.696288 31685 net.cpp:434] inception_5b/double3x3_reduce <- inception_5a/output_inception_5a_scale_0_split_2
I1114 09:23:20.696297 31685 net.cpp:408] inception_5b/double3x3_reduce -> inception_5b/double3x3_reduce
I1114 09:23:20.696722 31685 net.cpp:150] Setting up inception_5b/double3x3_reduce
I1114 09:23:20.696730 31685 net.cpp:157] Top shape: 32 192 7 7 (301056)
I1114 09:23:20.696734 31685 net.cpp:165] Memory required for data: 3271622656
I1114 09:23:20.696740 31685 layer_factory.hpp:77] Creating layer inception_5b/double3x3_reduce/bn
I1114 09:23:20.696748 31685 net.cpp:100] Creating Layer inception_5b/double3x3_reduce/bn
I1114 09:23:20.696753 31685 net.cpp:434] inception_5b/double3x3_reduce/bn <- inception_5b/double3x3_reduce
I1114 09:23:20.696759 31685 net.cpp:395] inception_5b/double3x3_reduce/bn -> inception_5b/double3x3_reduce (in-place)
I1114 09:23:20.697130 31685 net.cpp:150] Setting up inception_5b/double3x3_reduce/bn
I1114 09:23:20.697139 31685 net.cpp:157] Top shape: 32 192 7 7 (301056)
I1114 09:23:20.697144 31685 net.cpp:165] Memory required for data: 3272826880
I1114 09:23:20.697151 31685 layer_factory.hpp:77] Creating layer inception_5b/double3x3_reduce/bn/scale
I1114 09:23:20.697177 31685 net.cpp:100] Creating Layer inception_5b/double3x3_reduce/bn/scale
I1114 09:23:20.697183 31685 net.cpp:434] inception_5b/double3x3_reduce/bn/scale <- inception_5b/double3x3_reduce
I1114 09:23:20.697190 31685 net.cpp:395] inception_5b/double3x3_reduce/bn/scale -> inception_5b/double3x3_reduce (in-place)
I1114 09:23:20.697275 31685 layer_factory.hpp:77] Creating layer inception_5b/double3x3_reduce/bn/scale
I1114 09:23:20.697559 31685 net.cpp:150] Setting up inception_5b/double3x3_reduce/bn/scale
I1114 09:23:20.697584 31685 net.cpp:157] Top shape: 32 192 7 7 (301056)
I1114 09:23:20.697594 31685 net.cpp:165] Memory required for data: 3274031104
I1114 09:23:20.697618 31685 layer_factory.hpp:77] Creating layer inception_5b/relu_double3x3_reduce
I1114 09:23:20.697628 31685 net.cpp:100] Creating Layer inception_5b/relu_double3x3_reduce
I1114 09:23:20.697634 31685 net.cpp:434] inception_5b/relu_double3x3_reduce <- inception_5b/double3x3_reduce
I1114 09:23:20.697640 31685 net.cpp:395] inception_5b/relu_double3x3_reduce -> inception_5b/double3x3_reduce (in-place)
I1114 09:23:20.698195 31685 net.cpp:150] Setting up inception_5b/relu_double3x3_reduce
I1114 09:23:20.698210 31685 net.cpp:157] Top shape: 32 192 7 7 (301056)
I1114 09:23:20.698213 31685 net.cpp:165] Memory required for data: 3275235328
I1114 09:23:20.698217 31685 layer_factory.hpp:77] Creating layer inception_5b/double3x3a
I1114 09:23:20.698225 31685 net.cpp:100] Creating Layer inception_5b/double3x3a
I1114 09:23:20.698232 31685 net.cpp:434] inception_5b/double3x3a <- inception_5b/double3x3_reduce
I1114 09:23:20.698240 31685 net.cpp:408] inception_5b/double3x3a -> inception_5b/double3x3a
I1114 09:23:20.700577 31685 net.cpp:150] Setting up inception_5b/double3x3a
I1114 09:23:20.700594 31685 net.cpp:157] Top shape: 32 224 7 7 (351232)
I1114 09:23:20.700598 31685 net.cpp:165] Memory required for data: 3276640256
I1114 09:23:20.700605 31685 layer_factory.hpp:77] Creating layer inception_5b/double3x3a/bn
I1114 09:23:20.700616 31685 net.cpp:100] Creating Layer inception_5b/double3x3a/bn
I1114 09:23:20.700621 31685 net.cpp:434] inception_5b/double3x3a/bn <- inception_5b/double3x3a
I1114 09:23:20.700630 31685 net.cpp:395] inception_5b/double3x3a/bn -> inception_5b/double3x3a (in-place)
I1114 09:23:20.701001 31685 net.cpp:150] Setting up inception_5b/double3x3a/bn
I1114 09:23:20.701010 31685 net.cpp:157] Top shape: 32 224 7 7 (351232)
I1114 09:23:20.701014 31685 net.cpp:165] Memory required for data: 3278045184
I1114 09:23:20.701022 31685 layer_factory.hpp:77] Creating layer inception_5b/double3x3a/bn/scale
I1114 09:23:20.701035 31685 net.cpp:100] Creating Layer inception_5b/double3x3a/bn/scale
I1114 09:23:20.701040 31685 net.cpp:434] inception_5b/double3x3a/bn/scale <- inception_5b/double3x3a
I1114 09:23:20.701046 31685 net.cpp:395] inception_5b/double3x3a/bn/scale -> inception_5b/double3x3a (in-place)
I1114 09:23:20.701115 31685 layer_factory.hpp:77] Creating layer inception_5b/double3x3a/bn/scale
I1114 09:23:20.701333 31685 net.cpp:150] Setting up inception_5b/double3x3a/bn/scale
I1114 09:23:20.701342 31685 net.cpp:157] Top shape: 32 224 7 7 (351232)
I1114 09:23:20.701345 31685 net.cpp:165] Memory required for data: 3279450112
I1114 09:23:20.701354 31685 layer_factory.hpp:77] Creating layer inception_5b/relu_double3x3a
I1114 09:23:20.701362 31685 net.cpp:100] Creating Layer inception_5b/relu_double3x3a
I1114 09:23:20.701366 31685 net.cpp:434] inception_5b/relu_double3x3a <- inception_5b/double3x3a
I1114 09:23:20.701372 31685 net.cpp:395] inception_5b/relu_double3x3a -> inception_5b/double3x3a (in-place)
I1114 09:23:20.702085 31685 net.cpp:150] Setting up inception_5b/relu_double3x3a
I1114 09:23:20.702100 31685 net.cpp:157] Top shape: 32 224 7 7 (351232)
I1114 09:23:20.702105 31685 net.cpp:165] Memory required for data: 3280855040
I1114 09:23:20.702109 31685 layer_factory.hpp:77] Creating layer inception_5b/double3x3b
I1114 09:23:20.702119 31685 net.cpp:100] Creating Layer inception_5b/double3x3b
I1114 09:23:20.702126 31685 net.cpp:434] inception_5b/double3x3b <- inception_5b/double3x3a
I1114 09:23:20.702134 31685 net.cpp:408] inception_5b/double3x3b -> inception_5b/double3x3b
I1114 09:23:20.704380 31685 net.cpp:150] Setting up inception_5b/double3x3b
I1114 09:23:20.704414 31685 net.cpp:157] Top shape: 32 224 7 7 (351232)
I1114 09:23:20.704419 31685 net.cpp:165] Memory required for data: 3282259968
I1114 09:23:20.704427 31685 layer_factory.hpp:77] Creating layer inception_5b/double3x3b/bn
I1114 09:23:20.704435 31685 net.cpp:100] Creating Layer inception_5b/double3x3b/bn
I1114 09:23:20.704442 31685 net.cpp:434] inception_5b/double3x3b/bn <- inception_5b/double3x3b
I1114 09:23:20.704460 31685 net.cpp:395] inception_5b/double3x3b/bn -> inception_5b/double3x3b (in-place)
I1114 09:23:20.704860 31685 net.cpp:150] Setting up inception_5b/double3x3b/bn
I1114 09:23:20.704870 31685 net.cpp:157] Top shape: 32 224 7 7 (351232)
I1114 09:23:20.704874 31685 net.cpp:165] Memory required for data: 3283664896
I1114 09:23:20.704882 31685 layer_factory.hpp:77] Creating layer inception_5b/double3x3b/bn/scale
I1114 09:23:20.704890 31685 net.cpp:100] Creating Layer inception_5b/double3x3b/bn/scale
I1114 09:23:20.704895 31685 net.cpp:434] inception_5b/double3x3b/bn/scale <- inception_5b/double3x3b
I1114 09:23:20.704902 31685 net.cpp:395] inception_5b/double3x3b/bn/scale -> inception_5b/double3x3b (in-place)
I1114 09:23:20.704979 31685 layer_factory.hpp:77] Creating layer inception_5b/double3x3b/bn/scale
I1114 09:23:20.705185 31685 net.cpp:150] Setting up inception_5b/double3x3b/bn/scale
I1114 09:23:20.705195 31685 net.cpp:157] Top shape: 32 224 7 7 (351232)
I1114 09:23:20.705199 31685 net.cpp:165] Memory required for data: 3285069824
I1114 09:23:20.705206 31685 layer_factory.hpp:77] Creating layer inception_5b/relu_double3x3b
I1114 09:23:20.705214 31685 net.cpp:100] Creating Layer inception_5b/relu_double3x3b
I1114 09:23:20.705217 31685 net.cpp:434] inception_5b/relu_double3x3b <- inception_5b/double3x3b
I1114 09:23:20.705225 31685 net.cpp:395] inception_5b/relu_double3x3b -> inception_5b/double3x3b (in-place)
I1114 09:23:20.705950 31685 net.cpp:150] Setting up inception_5b/relu_double3x3b
I1114 09:23:20.705968 31685 net.cpp:157] Top shape: 32 224 7 7 (351232)
I1114 09:23:20.705972 31685 net.cpp:165] Memory required for data: 3286474752
I1114 09:23:20.705977 31685 layer_factory.hpp:77] Creating layer inception_5b/pool
I1114 09:23:20.705986 31685 net.cpp:100] Creating Layer inception_5b/pool
I1114 09:23:20.705992 31685 net.cpp:434] inception_5b/pool <- inception_5a/output_inception_5a_scale_0_split_3
I1114 09:23:20.706001 31685 net.cpp:408] inception_5b/pool -> inception_5b/pool
I1114 09:23:20.706082 31685 net.cpp:150] Setting up inception_5b/pool
I1114 09:23:20.706094 31685 net.cpp:157] Top shape: 32 1024 7 7 (1605632)
I1114 09:23:20.706097 31685 net.cpp:165] Memory required for data: 3292897280
I1114 09:23:20.706101 31685 layer_factory.hpp:77] Creating layer inception_5b/pool_proj
I1114 09:23:20.706110 31685 net.cpp:100] Creating Layer inception_5b/pool_proj
I1114 09:23:20.706115 31685 net.cpp:434] inception_5b/pool_proj <- inception_5b/pool
I1114 09:23:20.706125 31685 net.cpp:408] inception_5b/pool_proj -> inception_5b/pool_proj
I1114 09:23:20.706710 31685 net.cpp:150] Setting up inception_5b/pool_proj
I1114 09:23:20.706733 31685 net.cpp:157] Top shape: 32 128 7 7 (200704)
I1114 09:23:20.706741 31685 net.cpp:165] Memory required for data: 3293700096
I1114 09:23:20.706753 31685 layer_factory.hpp:77] Creating layer inception_5b/pool_proj/bn
I1114 09:23:20.706766 31685 net.cpp:100] Creating Layer inception_5b/pool_proj/bn
I1114 09:23:20.706775 31685 net.cpp:434] inception_5b/pool_proj/bn <- inception_5b/pool_proj
I1114 09:23:20.706820 31685 net.cpp:395] inception_5b/pool_proj/bn -> inception_5b/pool_proj (in-place)
I1114 09:23:20.707216 31685 net.cpp:150] Setting up inception_5b/pool_proj/bn
I1114 09:23:20.707226 31685 net.cpp:157] Top shape: 32 128 7 7 (200704)
I1114 09:23:20.707229 31685 net.cpp:165] Memory required for data: 3294502912
I1114 09:23:20.707238 31685 layer_factory.hpp:77] Creating layer inception_5b/pool_proj/bn/scale
I1114 09:23:20.707247 31685 net.cpp:100] Creating Layer inception_5b/pool_proj/bn/scale
I1114 09:23:20.707252 31685 net.cpp:434] inception_5b/pool_proj/bn/scale <- inception_5b/pool_proj
I1114 09:23:20.707260 31685 net.cpp:395] inception_5b/pool_proj/bn/scale -> inception_5b/pool_proj (in-place)
I1114 09:23:20.707331 31685 layer_factory.hpp:77] Creating layer inception_5b/pool_proj/bn/scale
I1114 09:23:20.707530 31685 net.cpp:150] Setting up inception_5b/pool_proj/bn/scale
I1114 09:23:20.707540 31685 net.cpp:157] Top shape: 32 128 7 7 (200704)
I1114 09:23:20.707543 31685 net.cpp:165] Memory required for data: 3295305728
I1114 09:23:20.707556 31685 layer_factory.hpp:77] Creating layer inception_5b/relu_pool_proj
I1114 09:23:20.707563 31685 net.cpp:100] Creating Layer inception_5b/relu_pool_proj
I1114 09:23:20.707568 31685 net.cpp:434] inception_5b/relu_pool_proj <- inception_5b/pool_proj
I1114 09:23:20.707574 31685 net.cpp:395] inception_5b/relu_pool_proj -> inception_5b/pool_proj (in-place)
I1114 09:23:20.711549 31685 net.cpp:150] Setting up inception_5b/relu_pool_proj
I1114 09:23:20.711591 31685 net.cpp:157] Top shape: 32 128 7 7 (200704)
I1114 09:23:20.711596 31685 net.cpp:165] Memory required for data: 3296108544
I1114 09:23:20.711601 31685 layer_factory.hpp:77] Creating layer inception_5b/concat
I1114 09:23:20.711613 31685 net.cpp:100] Creating Layer inception_5b/concat
I1114 09:23:20.711621 31685 net.cpp:434] inception_5b/concat <- inception_5b/1x1
I1114 09:23:20.711628 31685 net.cpp:434] inception_5b/concat <- inception_5b/3x3
I1114 09:23:20.711652 31685 net.cpp:434] inception_5b/concat <- inception_5b/double3x3b
I1114 09:23:20.711658 31685 net.cpp:434] inception_5b/concat <- inception_5b/pool_proj
I1114 09:23:20.711666 31685 net.cpp:408] inception_5b/concat -> inception_5b/concat
I1114 09:23:20.711737 31685 net.cpp:150] Setting up inception_5b/concat
I1114 09:23:20.711750 31685 net.cpp:157] Top shape: 32 1024 7 7 (1605632)
I1114 09:23:20.711757 31685 net.cpp:165] Memory required for data: 3302531072
I1114 09:23:20.711764 31685 layer_factory.hpp:77] Creating layer inception_5b/concat_inception_5b/concat_0_split
I1114 09:23:20.711776 31685 net.cpp:100] Creating Layer inception_5b/concat_inception_5b/concat_0_split
I1114 09:23:20.711784 31685 net.cpp:434] inception_5b/concat_inception_5b/concat_0_split <- inception_5b/concat
I1114 09:23:20.711798 31685 net.cpp:408] inception_5b/concat_inception_5b/concat_0_split -> inception_5b/concat_inception_5b/concat_0_split_0
I1114 09:23:20.711812 31685 net.cpp:408] inception_5b/concat_inception_5b/concat_0_split -> inception_5b/concat_inception_5b/concat_0_split_1
I1114 09:23:20.711935 31685 net.cpp:150] Setting up inception_5b/concat_inception_5b/concat_0_split
I1114 09:23:20.711948 31685 net.cpp:157] Top shape: 32 1024 7 7 (1605632)
I1114 09:23:20.711956 31685 net.cpp:157] Top shape: 32 1024 7 7 (1605632)
I1114 09:23:20.711959 31685 net.cpp:165] Memory required for data: 3315376128
I1114 09:23:20.711963 31685 layer_factory.hpp:77] Creating layer inception_5b_global_pool
I1114 09:23:20.711972 31685 net.cpp:100] Creating Layer inception_5b_global_pool
I1114 09:23:20.711977 31685 net.cpp:434] inception_5b_global_pool <- inception_5b/concat_inception_5b/concat_0_split_0
I1114 09:23:20.711988 31685 net.cpp:408] inception_5b_global_pool -> inception_5b_global_pool
I1114 09:23:20.712031 31685 net.cpp:150] Setting up inception_5b_global_pool
I1114 09:23:20.712055 31685 net.cpp:157] Top shape: 32 1024 1 1 (32768)
I1114 09:23:20.712059 31685 net.cpp:165] Memory required for data: 3315507200
I1114 09:23:20.712064 31685 layer_factory.hpp:77] Creating layer inception_5b_1x1_down
I1114 09:23:20.712076 31685 net.cpp:100] Creating Layer inception_5b_1x1_down
I1114 09:23:20.712081 31685 net.cpp:434] inception_5b_1x1_down <- inception_5b_global_pool
I1114 09:23:20.712090 31685 net.cpp:408] inception_5b_1x1_down -> inception_5b_1x1_down
I1114 09:23:20.712702 31685 net.cpp:150] Setting up inception_5b_1x1_down
I1114 09:23:20.712713 31685 net.cpp:157] Top shape: 32 64 1 1 (2048)
I1114 09:23:20.712716 31685 net.cpp:165] Memory required for data: 3315515392
I1114 09:23:20.712728 31685 layer_factory.hpp:77] Creating layer inception_5b_1x1_down/relu
I1114 09:23:20.712735 31685 net.cpp:100] Creating Layer inception_5b_1x1_down/relu
I1114 09:23:20.712740 31685 net.cpp:434] inception_5b_1x1_down/relu <- inception_5b_1x1_down
I1114 09:23:20.712746 31685 net.cpp:395] inception_5b_1x1_down/relu -> inception_5b_1x1_down (in-place)
I1114 09:23:20.713276 31685 net.cpp:150] Setting up inception_5b_1x1_down/relu
I1114 09:23:20.713289 31685 net.cpp:157] Top shape: 32 64 1 1 (2048)
I1114 09:23:20.713304 31685 net.cpp:165] Memory required for data: 3315523584
I1114 09:23:20.713308 31685 layer_factory.hpp:77] Creating layer inception_5b_1x1_up
I1114 09:23:20.713318 31685 net.cpp:100] Creating Layer inception_5b_1x1_up
I1114 09:23:20.713325 31685 net.cpp:434] inception_5b_1x1_up <- inception_5b_1x1_down
I1114 09:23:20.713330 31685 net.cpp:408] inception_5b_1x1_up -> inception_5b_1x1_up
I1114 09:23:20.713909 31685 net.cpp:150] Setting up inception_5b_1x1_up
I1114 09:23:20.713920 31685 net.cpp:157] Top shape: 32 1024 1 1 (32768)
I1114 09:23:20.713924 31685 net.cpp:165] Memory required for data: 3315654656
I1114 09:23:20.713932 31685 layer_factory.hpp:77] Creating layer inception_5b_prob
I1114 09:23:20.713941 31685 net.cpp:100] Creating Layer inception_5b_prob
I1114 09:23:20.713948 31685 net.cpp:434] inception_5b_prob <- inception_5b_1x1_up
I1114 09:23:20.713954 31685 net.cpp:395] inception_5b_prob -> inception_5b_1x1_up (in-place)
I1114 09:23:20.714866 31685 net.cpp:150] Setting up inception_5b_prob
I1114 09:23:20.714884 31685 net.cpp:157] Top shape: 32 1024 1 1 (32768)
I1114 09:23:20.714907 31685 net.cpp:165] Memory required for data: 3315785728
I1114 09:23:20.714911 31685 layer_factory.hpp:77] Creating layer inception_5b_prob_reshape
I1114 09:23:20.714923 31685 net.cpp:100] Creating Layer inception_5b_prob_reshape
I1114 09:23:20.714928 31685 net.cpp:434] inception_5b_prob_reshape <- inception_5b_1x1_up
I1114 09:23:20.714936 31685 net.cpp:408] inception_5b_prob_reshape -> inception_5b_prob_reshape
I1114 09:23:20.714988 31685 net.cpp:150] Setting up inception_5b_prob_reshape
I1114 09:23:20.714995 31685 net.cpp:157] Top shape: 32 1024 (32768)
I1114 09:23:20.714999 31685 net.cpp:165] Memory required for data: 3315916800
I1114 09:23:20.715003 31685 layer_factory.hpp:77] Creating layer inception_5b_scale
I1114 09:23:20.715011 31685 net.cpp:100] Creating Layer inception_5b_scale
I1114 09:23:20.715016 31685 net.cpp:434] inception_5b_scale <- inception_5b/concat_inception_5b/concat_0_split_1
I1114 09:23:20.715023 31685 net.cpp:434] inception_5b_scale <- inception_5b_prob_reshape
I1114 09:23:20.715030 31685 net.cpp:408] inception_5b_scale -> inception_5b/output
I1114 09:23:20.715168 31685 net.cpp:150] Setting up inception_5b_scale
I1114 09:23:20.715176 31685 net.cpp:157] Top shape: 32 1024 7 7 (1605632)
I1114 09:23:20.715180 31685 net.cpp:165] Memory required for data: 3322339328
I1114 09:23:20.715198 31685 layer_factory.hpp:77] Creating layer pool5/7x7_s1
I1114 09:23:20.715207 31685 net.cpp:100] Creating Layer pool5/7x7_s1
I1114 09:23:20.715212 31685 net.cpp:434] pool5/7x7_s1 <- inception_5b/output
I1114 09:23:20.715219 31685 net.cpp:408] pool5/7x7_s1 -> pool5/7x7_s1
I1114 09:23:20.716012 31685 net.cpp:150] Setting up pool5/7x7_s1
I1114 09:23:20.716027 31685 net.cpp:157] Top shape: 32 1024 1 1 (32768)
I1114 09:23:20.716032 31685 net.cpp:165] Memory required for data: 3322470400
I1114 09:23:20.716037 31685 layer_factory.hpp:77] Creating layer fc_final
I1114 09:23:20.716049 31685 net.cpp:100] Creating Layer fc_final
I1114 09:23:20.716054 31685 net.cpp:434] fc_final <- pool5/7x7_s1
I1114 09:23:20.716064 31685 net.cpp:408] fc_final -> fc_final
I1114 09:23:20.717144 31685 net.cpp:150] Setting up fc_final
I1114 09:23:20.717156 31685 net.cpp:157] Top shape: 32 64 (2048)
I1114 09:23:20.717160 31685 net.cpp:165] Memory required for data: 3322478592
I1114 09:23:20.717170 31685 layer_factory.hpp:77] Creating layer probloss1
I1114 09:23:20.717190 31685 net.cpp:100] Creating Layer probloss1
I1114 09:23:20.717195 31685 net.cpp:434] probloss1 <- fc_final
I1114 09:23:20.717201 31685 net.cpp:434] probloss1 <- label_data_1_split_0
I1114 09:23:20.717207 31685 net.cpp:408] probloss1 -> pred
I1114 09:23:20.717519 31685 net.cpp:150] Setting up probloss1
I1114 09:23:20.717527 31685 net.cpp:157] Top shape: 32 1 1 1 (32)
I1114 09:23:20.717531 31685 net.cpp:165] Memory required for data: 3322478720
I1114 09:23:20.717540 31685 layer_factory.hpp:77] Creating layer pred_probloss1_0_split
I1114 09:23:20.717547 31685 net.cpp:100] Creating Layer pred_probloss1_0_split
I1114 09:23:20.717563 31685 net.cpp:434] pred_probloss1_0_split <- pred
I1114 09:23:20.717571 31685 net.cpp:408] pred_probloss1_0_split -> pred_probloss1_0_split_0
I1114 09:23:20.717581 31685 net.cpp:408] pred_probloss1_0_split -> pred_probloss1_0_split_1
I1114 09:23:20.717643 31685 net.cpp:150] Setting up pred_probloss1_0_split
I1114 09:23:20.717650 31685 net.cpp:157] Top shape: 32 1 1 1 (32)
I1114 09:23:20.717655 31685 net.cpp:157] Top shape: 32 1 1 1 (32)
I1114 09:23:20.717658 31685 net.cpp:165] Memory required for data: 3322478976
I1114 09:23:20.717662 31685 layer_factory.hpp:77] Creating layer MAE
I1114 09:23:20.717670 31685 net.cpp:100] Creating Layer MAE
I1114 09:23:20.717675 31685 net.cpp:434] MAE <- pred_probloss1_0_split_0
I1114 09:23:20.717680 31685 net.cpp:434] MAE <- label_data_1_split_1
I1114 09:23:20.717689 31685 net.cpp:408] MAE -> MAE
…
